{
  "nodes": [
    {
      "op": "null", 
      "name": "data", 
      "inputs": []
    }, 
    {
      "op": "null", 
      "name": "conv1_conv2d_weight", 
      "attrs": {
        "kernel": "(3, 3)", 
        "no_bias": "True", 
        "num_filter": "16", 
        "num_group": "1", 
        "pad": "(1, 1)", 
        "stride": "(2, 2)"
      }, 
      "inputs": []
    }, 
    {
      "op": "Convolution", 
      "name": "conv1_conv2d", 
      "attrs": {
        "kernel": "(3, 3)", 
        "no_bias": "True", 
        "num_filter": "16", 
        "num_group": "1", 
        "pad": "(1, 1)", 
        "stride": "(2, 2)"
      }, 
      "inputs": [[0, 0, 0], [1, 0, 0]]
    }, 
    {
      "op": "null", 
      "name": "conv1_batchnorm_gamma", 
      "attrs": {
        "fix_gamma": "False", 
        "momentum": "0.9"
      }, 
      "inputs": []
    }, 
    {
      "op": "null", 
      "name": "conv1_batchnorm_beta", 
      "attrs": {
        "fix_gamma": "False", 
        "momentum": "0.9"
      }, 
      "inputs": []
    }, 
    {
      "op": "null", 
      "name": "conv1_batchnorm_moving_mean", 
      "attrs": {
        "__init__": "[\"zero\", {}]", 
        "fix_gamma": "False", 
        "momentum": "0.9"
      }, 
      "inputs": []
    }, 
    {
      "op": "null", 
      "name": "conv1_batchnorm_moving_var", 
      "attrs": {
        "__init__": "[\"one\", {}]", 
        "fix_gamma": "False", 
        "momentum": "0.9"
      }, 
      "inputs": []
    }, 
    {
      "op": "BatchNorm", 
      "name": "conv1_batchnorm", 
      "attrs": {
        "fix_gamma": "False", 
        "momentum": "0.9"
      }, 
      "inputs": [[2, 0, 0], [3, 0, 0], [4, 0, 0], [5, 0, 1], [6, 0, 1]]
    }, 
    {
      "op": "null", 
      "name": "conv1_relu_gamma", 
      "attrs": {
        "__init__": "[\"Constant\", {\"value\": 0.25}]", 
        "act_type": "prelu"
      }, 
      "inputs": []
    }, 
    {
      "op": "LeakyReLU", 
      "name": "conv1_relu", 
      "attrs": {"act_type": "prelu"}, 
      "inputs": [[7, 0, 0], [8, 0, 0]]
    }, 
    {
      "op": "null", 
      "name": "res2_block0_conv_sep_conv2d_weight", 
      "attrs": {
        "kernel": "(1, 1)", 
        "no_bias": "True", 
        "num_filter": "16", 
        "num_group": "1", 
        "pad": "(0, 0)", 
        "stride": "(1, 1)"
      }, 
      "inputs": []
    }, 
    {
      "op": "Convolution", 
      "name": "res2_block0_conv_sep_conv2d", 
      "attrs": {
        "kernel": "(1, 1)", 
        "no_bias": "True", 
        "num_filter": "16", 
        "num_group": "1", 
        "pad": "(0, 0)", 
        "stride": "(1, 1)"
      }, 
      "inputs": [[9, 0, 0], [10, 0, 0]]
    }, 
    {
      "op": "null", 
      "name": "res2_block0_conv_sep_batchnorm_gamma", 
      "attrs": {
        "fix_gamma": "False", 
        "momentum": "0.9"
      }, 
      "inputs": []
    }, 
    {
      "op": "null", 
      "name": "res2_block0_conv_sep_batchnorm_beta", 
      "attrs": {
        "fix_gamma": "False", 
        "momentum": "0.9"
      }, 
      "inputs": []
    }, 
    {
      "op": "null", 
      "name": "res2_block0_conv_sep_batchnorm_moving_mean", 
      "attrs": {
        "__init__": "[\"zero\", {}]", 
        "fix_gamma": "False", 
        "momentum": "0.9"
      }, 
      "inputs": []
    }, 
    {
      "op": "null", 
      "name": "res2_block0_conv_sep_batchnorm_moving_var", 
      "attrs": {
        "__init__": "[\"one\", {}]", 
        "fix_gamma": "False", 
        "momentum": "0.9"
      }, 
      "inputs": []
    }, 
    {
      "op": "BatchNorm", 
      "name": "res2_block0_conv_sep_batchnorm", 
      "attrs": {
        "fix_gamma": "False", 
        "momentum": "0.9"
      }, 
      "inputs": [[11, 0, 0], [12, 0, 0], [13, 0, 0], [14, 0, 1], [15, 0, 1]]
    }, 
    {
      "op": "null", 
      "name": "res2_block0_conv_sep_relu_gamma", 
      "attrs": {
        "__init__": "[\"Constant\", {\"value\": 0.25}]", 
        "act_type": "prelu"
      }, 
      "inputs": []
    }, 
    {
      "op": "LeakyReLU", 
      "name": "res2_block0_conv_sep_relu", 
      "attrs": {"act_type": "prelu"}, 
      "inputs": [[16, 0, 0], [17, 0, 0]]
    }, 
    {
      "op": "null", 
      "name": "res2_block0_conv_dw_conv2d_weight", 
      "attrs": {
        "kernel": "(3, 3)", 
        "no_bias": "True", 
        "num_filter": "16", 
        "num_group": "16", 
        "pad": "(1, 1)", 
        "stride": "(1, 1)"
      }, 
      "inputs": []
    }, 
    {
      "op": "Convolution", 
      "name": "res2_block0_conv_dw_conv2d", 
      "attrs": {
        "kernel": "(3, 3)", 
        "no_bias": "True", 
        "num_filter": "16", 
        "num_group": "16", 
        "pad": "(1, 1)", 
        "stride": "(1, 1)"
      }, 
      "inputs": [[18, 0, 0], [19, 0, 0]]
    }, 
    {
      "op": "null", 
      "name": "res2_block0_conv_dw_batchnorm_gamma", 
      "attrs": {
        "fix_gamma": "False", 
        "momentum": "0.9"
      }, 
      "inputs": []
    }, 
    {
      "op": "null", 
      "name": "res2_block0_conv_dw_batchnorm_beta", 
      "attrs": {
        "fix_gamma": "False", 
        "momentum": "0.9"
      }, 
      "inputs": []
    }, 
    {
      "op": "null", 
      "name": "res2_block0_conv_dw_batchnorm_moving_mean", 
      "attrs": {
        "__init__": "[\"zero\", {}]", 
        "fix_gamma": "False", 
        "momentum": "0.9"
      }, 
      "inputs": []
    }, 
    {
      "op": "null", 
      "name": "res2_block0_conv_dw_batchnorm_moving_var", 
      "attrs": {
        "__init__": "[\"one\", {}]", 
        "fix_gamma": "False", 
        "momentum": "0.9"
      }, 
      "inputs": []
    }, 
    {
      "op": "BatchNorm", 
      "name": "res2_block0_conv_dw_batchnorm", 
      "attrs": {
        "fix_gamma": "False", 
        "momentum": "0.9"
      }, 
      "inputs": [[20, 0, 0], [21, 0, 0], [22, 0, 0], [23, 0, 1], [24, 0, 1]]
    }, 
    {
      "op": "null", 
      "name": "res2_block0_conv_dw_relu_gamma", 
      "attrs": {
        "__init__": "[\"Constant\", {\"value\": 0.25}]", 
        "act_type": "prelu"
      }, 
      "inputs": []
    }, 
    {
      "op": "LeakyReLU", 
      "name": "res2_block0_conv_dw_relu", 
      "attrs": {"act_type": "prelu"}, 
      "inputs": [[25, 0, 0], [26, 0, 0]]
    }, 
    {
      "op": "null", 
      "name": "res2_block0_conv_proj_conv2d_weight", 
      "attrs": {
        "kernel": "(1, 1)", 
        "no_bias": "True", 
        "num_filter": "16", 
        "num_group": "1", 
        "pad": "(0, 0)", 
        "stride": "(1, 1)"
      }, 
      "inputs": []
    }, 
    {
      "op": "Convolution", 
      "name": "res2_block0_conv_proj_conv2d", 
      "attrs": {
        "kernel": "(1, 1)", 
        "no_bias": "True", 
        "num_filter": "16", 
        "num_group": "1", 
        "pad": "(0, 0)", 
        "stride": "(1, 1)"
      }, 
      "inputs": [[27, 0, 0], [28, 0, 0]]
    }, 
    {
      "op": "null", 
      "name": "res2_block0_conv_proj_batchnorm_gamma", 
      "attrs": {
        "fix_gamma": "False", 
        "momentum": "0.9"
      }, 
      "inputs": []
    }, 
    {
      "op": "null", 
      "name": "res2_block0_conv_proj_batchnorm_beta", 
      "attrs": {
        "fix_gamma": "False", 
        "momentum": "0.9"
      }, 
      "inputs": []
    }, 
    {
      "op": "null", 
      "name": "res2_block0_conv_proj_batchnorm_moving_mean", 
      "attrs": {
        "__init__": "[\"zero\", {}]", 
        "fix_gamma": "False", 
        "momentum": "0.9"
      }, 
      "inputs": []
    }, 
    {
      "op": "null", 
      "name": "res2_block0_conv_proj_batchnorm_moving_var", 
      "attrs": {
        "__init__": "[\"one\", {}]", 
        "fix_gamma": "False", 
        "momentum": "0.9"
      }, 
      "inputs": []
    }, 
    {
      "op": "BatchNorm", 
      "name": "res2_block0_conv_proj_batchnorm", 
      "attrs": {
        "fix_gamma": "False", 
        "momentum": "0.9"
      }, 
      "inputs": [[29, 0, 0], [30, 0, 0], [31, 0, 0], [32, 0, 1], [33, 0, 1]]
    }, 
    {
      "op": "elemwise_add", 
      "name": "_plus0", 
      "inputs": [[34, 0, 0], [9, 0, 0]]
    }, 
    {
      "op": "null", 
      "name": "res2_block1_conv_sep_conv2d_weight", 
      "attrs": {
        "kernel": "(1, 1)", 
        "no_bias": "True", 
        "num_filter": "16", 
        "num_group": "1", 
        "pad": "(0, 0)", 
        "stride": "(1, 1)"
      }, 
      "inputs": []
    }, 
    {
      "op": "Convolution", 
      "name": "res2_block1_conv_sep_conv2d", 
      "attrs": {
        "kernel": "(1, 1)", 
        "no_bias": "True", 
        "num_filter": "16", 
        "num_group": "1", 
        "pad": "(0, 0)", 
        "stride": "(1, 1)"
      }, 
      "inputs": [[35, 0, 0], [36, 0, 0]]
    }, 
    {
      "op": "null", 
      "name": "res2_block1_conv_sep_batchnorm_gamma", 
      "attrs": {
        "fix_gamma": "False", 
        "momentum": "0.9"
      }, 
      "inputs": []
    }, 
    {
      "op": "null", 
      "name": "res2_block1_conv_sep_batchnorm_beta", 
      "attrs": {
        "fix_gamma": "False", 
        "momentum": "0.9"
      }, 
      "inputs": []
    }, 
    {
      "op": "null", 
      "name": "res2_block1_conv_sep_batchnorm_moving_mean", 
      "attrs": {
        "__init__": "[\"zero\", {}]", 
        "fix_gamma": "False", 
        "momentum": "0.9"
      }, 
      "inputs": []
    }, 
    {
      "op": "null", 
      "name": "res2_block1_conv_sep_batchnorm_moving_var", 
      "attrs": {
        "__init__": "[\"one\", {}]", 
        "fix_gamma": "False", 
        "momentum": "0.9"
      }, 
      "inputs": []
    }, 
    {
      "op": "BatchNorm", 
      "name": "res2_block1_conv_sep_batchnorm", 
      "attrs": {
        "fix_gamma": "False", 
        "momentum": "0.9"
      }, 
      "inputs": [[37, 0, 0], [38, 0, 0], [39, 0, 0], [40, 0, 1], [41, 0, 1]]
    }, 
    {
      "op": "null", 
      "name": "res2_block1_conv_sep_relu_gamma", 
      "attrs": {
        "__init__": "[\"Constant\", {\"value\": 0.25}]", 
        "act_type": "prelu"
      }, 
      "inputs": []
    }, 
    {
      "op": "LeakyReLU", 
      "name": "res2_block1_conv_sep_relu", 
      "attrs": {"act_type": "prelu"}, 
      "inputs": [[42, 0, 0], [43, 0, 0]]
    }, 
    {
      "op": "null", 
      "name": "res2_block1_conv_dw_conv2d_weight", 
      "attrs": {
        "kernel": "(3, 3)", 
        "no_bias": "True", 
        "num_filter": "16", 
        "num_group": "16", 
        "pad": "(1, 1)", 
        "stride": "(1, 1)"
      }, 
      "inputs": []
    }, 
    {
      "op": "Convolution", 
      "name": "res2_block1_conv_dw_conv2d", 
      "attrs": {
        "kernel": "(3, 3)", 
        "no_bias": "True", 
        "num_filter": "16", 
        "num_group": "16", 
        "pad": "(1, 1)", 
        "stride": "(1, 1)"
      }, 
      "inputs": [[44, 0, 0], [45, 0, 0]]
    }, 
    {
      "op": "null", 
      "name": "res2_block1_conv_dw_batchnorm_gamma", 
      "attrs": {
        "fix_gamma": "False", 
        "momentum": "0.9"
      }, 
      "inputs": []
    }, 
    {
      "op": "null", 
      "name": "res2_block1_conv_dw_batchnorm_beta", 
      "attrs": {
        "fix_gamma": "False", 
        "momentum": "0.9"
      }, 
      "inputs": []
    }, 
    {
      "op": "null", 
      "name": "res2_block1_conv_dw_batchnorm_moving_mean", 
      "attrs": {
        "__init__": "[\"zero\", {}]", 
        "fix_gamma": "False", 
        "momentum": "0.9"
      }, 
      "inputs": []
    }, 
    {
      "op": "null", 
      "name": "res2_block1_conv_dw_batchnorm_moving_var", 
      "attrs": {
        "__init__": "[\"one\", {}]", 
        "fix_gamma": "False", 
        "momentum": "0.9"
      }, 
      "inputs": []
    }, 
    {
      "op": "BatchNorm", 
      "name": "res2_block1_conv_dw_batchnorm", 
      "attrs": {
        "fix_gamma": "False", 
        "momentum": "0.9"
      }, 
      "inputs": [[46, 0, 0], [47, 0, 0], [48, 0, 0], [49, 0, 1], [50, 0, 1]]
    }, 
    {
      "op": "null", 
      "name": "res2_block1_conv_dw_relu_gamma", 
      "attrs": {
        "__init__": "[\"Constant\", {\"value\": 0.25}]", 
        "act_type": "prelu"
      }, 
      "inputs": []
    }, 
    {
      "op": "LeakyReLU", 
      "name": "res2_block1_conv_dw_relu", 
      "attrs": {"act_type": "prelu"}, 
      "inputs": [[51, 0, 0], [52, 0, 0]]
    }, 
    {
      "op": "null", 
      "name": "res2_block1_conv_proj_conv2d_weight", 
      "attrs": {
        "kernel": "(1, 1)", 
        "no_bias": "True", 
        "num_filter": "16", 
        "num_group": "1", 
        "pad": "(0, 0)", 
        "stride": "(1, 1)"
      }, 
      "inputs": []
    }, 
    {
      "op": "Convolution", 
      "name": "res2_block1_conv_proj_conv2d", 
      "attrs": {
        "kernel": "(1, 1)", 
        "no_bias": "True", 
        "num_filter": "16", 
        "num_group": "1", 
        "pad": "(0, 0)", 
        "stride": "(1, 1)"
      }, 
      "inputs": [[53, 0, 0], [54, 0, 0]]
    }, 
    {
      "op": "null", 
      "name": "res2_block1_conv_proj_batchnorm_gamma", 
      "attrs": {
        "fix_gamma": "False", 
        "momentum": "0.9"
      }, 
      "inputs": []
    }, 
    {
      "op": "null", 
      "name": "res2_block1_conv_proj_batchnorm_beta", 
      "attrs": {
        "fix_gamma": "False", 
        "momentum": "0.9"
      }, 
      "inputs": []
    }, 
    {
      "op": "null", 
      "name": "res2_block1_conv_proj_batchnorm_moving_mean", 
      "attrs": {
        "__init__": "[\"zero\", {}]", 
        "fix_gamma": "False", 
        "momentum": "0.9"
      }, 
      "inputs": []
    }, 
    {
      "op": "null", 
      "name": "res2_block1_conv_proj_batchnorm_moving_var", 
      "attrs": {
        "__init__": "[\"one\", {}]", 
        "fix_gamma": "False", 
        "momentum": "0.9"
      }, 
      "inputs": []
    }, 
    {
      "op": "BatchNorm", 
      "name": "res2_block1_conv_proj_batchnorm", 
      "attrs": {
        "fix_gamma": "False", 
        "momentum": "0.9"
      }, 
      "inputs": [[55, 0, 0], [56, 0, 0], [57, 0, 0], [58, 0, 1], [59, 0, 1]]
    }, 
    {
      "op": "elemwise_add", 
      "name": "_plus1", 
      "inputs": [[60, 0, 0], [35, 0, 0]]
    }, 
    {
      "op": "null", 
      "name": "dconv23_conv_sep_conv2d_weight", 
      "attrs": {
        "kernel": "(1, 1)", 
        "no_bias": "True", 
        "num_filter": "32", 
        "num_group": "1", 
        "pad": "(0, 0)", 
        "stride": "(1, 1)"
      }, 
      "inputs": []
    }, 
    {
      "op": "Convolution", 
      "name": "dconv23_conv_sep_conv2d", 
      "attrs": {
        "kernel": "(1, 1)", 
        "no_bias": "True", 
        "num_filter": "32", 
        "num_group": "1", 
        "pad": "(0, 0)", 
        "stride": "(1, 1)"
      }, 
      "inputs": [[61, 0, 0], [62, 0, 0]]
    }, 
    {
      "op": "null", 
      "name": "dconv23_conv_sep_batchnorm_gamma", 
      "attrs": {
        "fix_gamma": "False", 
        "momentum": "0.9"
      }, 
      "inputs": []
    }, 
    {
      "op": "null", 
      "name": "dconv23_conv_sep_batchnorm_beta", 
      "attrs": {
        "fix_gamma": "False", 
        "momentum": "0.9"
      }, 
      "inputs": []
    }, 
    {
      "op": "null", 
      "name": "dconv23_conv_sep_batchnorm_moving_mean", 
      "attrs": {
        "__init__": "[\"zero\", {}]", 
        "fix_gamma": "False", 
        "momentum": "0.9"
      }, 
      "inputs": []
    }, 
    {
      "op": "null", 
      "name": "dconv23_conv_sep_batchnorm_moving_var", 
      "attrs": {
        "__init__": "[\"one\", {}]", 
        "fix_gamma": "False", 
        "momentum": "0.9"
      }, 
      "inputs": []
    }, 
    {
      "op": "BatchNorm", 
      "name": "dconv23_conv_sep_batchnorm", 
      "attrs": {
        "fix_gamma": "False", 
        "momentum": "0.9"
      }, 
      "inputs": [[63, 0, 0], [64, 0, 0], [65, 0, 0], [66, 0, 1], [67, 0, 1]]
    }, 
    {
      "op": "null", 
      "name": "dconv23_conv_sep_relu_gamma", 
      "attrs": {
        "__init__": "[\"Constant\", {\"value\": 0.25}]", 
        "act_type": "prelu"
      }, 
      "inputs": []
    }, 
    {
      "op": "LeakyReLU", 
      "name": "dconv23_conv_sep_relu", 
      "attrs": {"act_type": "prelu"}, 
      "inputs": [[68, 0, 0], [69, 0, 0]]
    }, 
    {
      "op": "null", 
      "name": "dconv23_conv_dw_conv2d_weight", 
      "attrs": {
        "kernel": "(3, 3)", 
        "no_bias": "True", 
        "num_filter": "32", 
        "num_group": "32", 
        "pad": "(1, 1)", 
        "stride": "(2, 2)"
      }, 
      "inputs": []
    }, 
    {
      "op": "Convolution", 
      "name": "dconv23_conv_dw_conv2d", 
      "attrs": {
        "kernel": "(3, 3)", 
        "no_bias": "True", 
        "num_filter": "32", 
        "num_group": "32", 
        "pad": "(1, 1)", 
        "stride": "(2, 2)"
      }, 
      "inputs": [[70, 0, 0], [71, 0, 0]]
    }, 
    {
      "op": "null", 
      "name": "dconv23_conv_dw_batchnorm_gamma", 
      "attrs": {
        "fix_gamma": "False", 
        "momentum": "0.9"
      }, 
      "inputs": []
    }, 
    {
      "op": "null", 
      "name": "dconv23_conv_dw_batchnorm_beta", 
      "attrs": {
        "fix_gamma": "False", 
        "momentum": "0.9"
      }, 
      "inputs": []
    }, 
    {
      "op": "null", 
      "name": "dconv23_conv_dw_batchnorm_moving_mean", 
      "attrs": {
        "__init__": "[\"zero\", {}]", 
        "fix_gamma": "False", 
        "momentum": "0.9"
      }, 
      "inputs": []
    }, 
    {
      "op": "null", 
      "name": "dconv23_conv_dw_batchnorm_moving_var", 
      "attrs": {
        "__init__": "[\"one\", {}]", 
        "fix_gamma": "False", 
        "momentum": "0.9"
      }, 
      "inputs": []
    }, 
    {
      "op": "BatchNorm", 
      "name": "dconv23_conv_dw_batchnorm", 
      "attrs": {
        "fix_gamma": "False", 
        "momentum": "0.9"
      }, 
      "inputs": [[72, 0, 0], [73, 0, 0], [74, 0, 0], [75, 0, 1], [76, 0, 1]]
    }, 
    {
      "op": "null", 
      "name": "dconv23_conv_dw_relu_gamma", 
      "attrs": {
        "__init__": "[\"Constant\", {\"value\": 0.25}]", 
        "act_type": "prelu"
      }, 
      "inputs": []
    }, 
    {
      "op": "LeakyReLU", 
      "name": "dconv23_conv_dw_relu", 
      "attrs": {"act_type": "prelu"}, 
      "inputs": [[77, 0, 0], [78, 0, 0]]
    }, 
    {
      "op": "null", 
      "name": "dconv23_conv_proj_conv2d_weight", 
      "attrs": {
        "kernel": "(1, 1)", 
        "no_bias": "True", 
        "num_filter": "32", 
        "num_group": "1", 
        "pad": "(0, 0)", 
        "stride": "(1, 1)"
      }, 
      "inputs": []
    }, 
    {
      "op": "Convolution", 
      "name": "dconv23_conv_proj_conv2d", 
      "attrs": {
        "kernel": "(1, 1)", 
        "no_bias": "True", 
        "num_filter": "32", 
        "num_group": "1", 
        "pad": "(0, 0)", 
        "stride": "(1, 1)"
      }, 
      "inputs": [[79, 0, 0], [80, 0, 0]]
    }, 
    {
      "op": "null", 
      "name": "dconv23_conv_proj_batchnorm_gamma", 
      "attrs": {
        "fix_gamma": "False", 
        "momentum": "0.9"
      }, 
      "inputs": []
    }, 
    {
      "op": "null", 
      "name": "dconv23_conv_proj_batchnorm_beta", 
      "attrs": {
        "fix_gamma": "False", 
        "momentum": "0.9"
      }, 
      "inputs": []
    }, 
    {
      "op": "null", 
      "name": "dconv23_conv_proj_batchnorm_moving_mean", 
      "attrs": {
        "__init__": "[\"zero\", {}]", 
        "fix_gamma": "False", 
        "momentum": "0.9"
      }, 
      "inputs": []
    }, 
    {
      "op": "null", 
      "name": "dconv23_conv_proj_batchnorm_moving_var", 
      "attrs": {
        "__init__": "[\"one\", {}]", 
        "fix_gamma": "False", 
        "momentum": "0.9"
      }, 
      "inputs": []
    }, 
    {
      "op": "BatchNorm", 
      "name": "dconv23_conv_proj_batchnorm", 
      "attrs": {
        "fix_gamma": "False", 
        "momentum": "0.9"
      }, 
      "inputs": [[81, 0, 0], [82, 0, 0], [83, 0, 0], [84, 0, 1], [85, 0, 1]]
    }, 
    {
      "op": "null", 
      "name": "res3_block0_conv_sep_conv2d_weight", 
      "attrs": {
        "kernel": "(1, 1)", 
        "no_bias": "True", 
        "num_filter": "32", 
        "num_group": "1", 
        "pad": "(0, 0)", 
        "stride": "(1, 1)"
      }, 
      "inputs": []
    }, 
    {
      "op": "Convolution", 
      "name": "res3_block0_conv_sep_conv2d", 
      "attrs": {
        "kernel": "(1, 1)", 
        "no_bias": "True", 
        "num_filter": "32", 
        "num_group": "1", 
        "pad": "(0, 0)", 
        "stride": "(1, 1)"
      }, 
      "inputs": [[86, 0, 0], [87, 0, 0]]
    }, 
    {
      "op": "null", 
      "name": "res3_block0_conv_sep_batchnorm_gamma", 
      "attrs": {
        "fix_gamma": "False", 
        "momentum": "0.9"
      }, 
      "inputs": []
    }, 
    {
      "op": "null", 
      "name": "res3_block0_conv_sep_batchnorm_beta", 
      "attrs": {
        "fix_gamma": "False", 
        "momentum": "0.9"
      }, 
      "inputs": []
    }, 
    {
      "op": "null", 
      "name": "res3_block0_conv_sep_batchnorm_moving_mean", 
      "attrs": {
        "__init__": "[\"zero\", {}]", 
        "fix_gamma": "False", 
        "momentum": "0.9"
      }, 
      "inputs": []
    }, 
    {
      "op": "null", 
      "name": "res3_block0_conv_sep_batchnorm_moving_var", 
      "attrs": {
        "__init__": "[\"one\", {}]", 
        "fix_gamma": "False", 
        "momentum": "0.9"
      }, 
      "inputs": []
    }, 
    {
      "op": "BatchNorm", 
      "name": "res3_block0_conv_sep_batchnorm", 
      "attrs": {
        "fix_gamma": "False", 
        "momentum": "0.9"
      }, 
      "inputs": [[88, 0, 0], [89, 0, 0], [90, 0, 0], [91, 0, 1], [92, 0, 1]]
    }, 
    {
      "op": "null", 
      "name": "res3_block0_conv_sep_relu_gamma", 
      "attrs": {
        "__init__": "[\"Constant\", {\"value\": 0.25}]", 
        "act_type": "prelu"
      }, 
      "inputs": []
    }, 
    {
      "op": "LeakyReLU", 
      "name": "res3_block0_conv_sep_relu", 
      "attrs": {"act_type": "prelu"}, 
      "inputs": [[93, 0, 0], [94, 0, 0]]
    }, 
    {
      "op": "null", 
      "name": "res3_block0_conv_dw_conv2d_weight", 
      "attrs": {
        "kernel": "(3, 3)", 
        "no_bias": "True", 
        "num_filter": "32", 
        "num_group": "32", 
        "pad": "(1, 1)", 
        "stride": "(1, 1)"
      }, 
      "inputs": []
    }, 
    {
      "op": "Convolution", 
      "name": "res3_block0_conv_dw_conv2d", 
      "attrs": {
        "kernel": "(3, 3)", 
        "no_bias": "True", 
        "num_filter": "32", 
        "num_group": "32", 
        "pad": "(1, 1)", 
        "stride": "(1, 1)"
      }, 
      "inputs": [[95, 0, 0], [96, 0, 0]]
    }, 
    {
      "op": "null", 
      "name": "res3_block0_conv_dw_batchnorm_gamma", 
      "attrs": {
        "fix_gamma": "False", 
        "momentum": "0.9"
      }, 
      "inputs": []
    }, 
    {
      "op": "null", 
      "name": "res3_block0_conv_dw_batchnorm_beta", 
      "attrs": {
        "fix_gamma": "False", 
        "momentum": "0.9"
      }, 
      "inputs": []
    }, 
    {
      "op": "null", 
      "name": "res3_block0_conv_dw_batchnorm_moving_mean", 
      "attrs": {
        "__init__": "[\"zero\", {}]", 
        "fix_gamma": "False", 
        "momentum": "0.9"
      }, 
      "inputs": []
    }, 
    {
      "op": "null", 
      "name": "res3_block0_conv_dw_batchnorm_moving_var", 
      "attrs": {
        "__init__": "[\"one\", {}]", 
        "fix_gamma": "False", 
        "momentum": "0.9"
      }, 
      "inputs": []
    }, 
    {
      "op": "BatchNorm", 
      "name": "res3_block0_conv_dw_batchnorm", 
      "attrs": {
        "fix_gamma": "False", 
        "momentum": "0.9"
      }, 
      "inputs": [[97, 0, 0], [98, 0, 0], [99, 0, 0], [100, 0, 1], [101, 0, 1]]
    }, 
    {
      "op": "null", 
      "name": "res3_block0_conv_dw_relu_gamma", 
      "attrs": {
        "__init__": "[\"Constant\", {\"value\": 0.25}]", 
        "act_type": "prelu"
      }, 
      "inputs": []
    }, 
    {
      "op": "LeakyReLU", 
      "name": "res3_block0_conv_dw_relu", 
      "attrs": {"act_type": "prelu"}, 
      "inputs": [[102, 0, 0], [103, 0, 0]]
    }, 
    {
      "op": "null", 
      "name": "res3_block0_conv_proj_conv2d_weight", 
      "attrs": {
        "kernel": "(1, 1)", 
        "no_bias": "True", 
        "num_filter": "32", 
        "num_group": "1", 
        "pad": "(0, 0)", 
        "stride": "(1, 1)"
      }, 
      "inputs": []
    }, 
    {
      "op": "Convolution", 
      "name": "res3_block0_conv_proj_conv2d", 
      "attrs": {
        "kernel": "(1, 1)", 
        "no_bias": "True", 
        "num_filter": "32", 
        "num_group": "1", 
        "pad": "(0, 0)", 
        "stride": "(1, 1)"
      }, 
      "inputs": [[104, 0, 0], [105, 0, 0]]
    }, 
    {
      "op": "null", 
      "name": "res3_block0_conv_proj_batchnorm_gamma", 
      "attrs": {
        "fix_gamma": "False", 
        "momentum": "0.9"
      }, 
      "inputs": []
    }, 
    {
      "op": "null", 
      "name": "res3_block0_conv_proj_batchnorm_beta", 
      "attrs": {
        "fix_gamma": "False", 
        "momentum": "0.9"
      }, 
      "inputs": []
    }, 
    {
      "op": "null", 
      "name": "res3_block0_conv_proj_batchnorm_moving_mean", 
      "attrs": {
        "__init__": "[\"zero\", {}]", 
        "fix_gamma": "False", 
        "momentum": "0.9"
      }, 
      "inputs": []
    }, 
    {
      "op": "null", 
      "name": "res3_block0_conv_proj_batchnorm_moving_var", 
      "attrs": {
        "__init__": "[\"one\", {}]", 
        "fix_gamma": "False", 
        "momentum": "0.9"
      }, 
      "inputs": []
    }, 
    {
      "op": "BatchNorm", 
      "name": "res3_block0_conv_proj_batchnorm", 
      "attrs": {
        "fix_gamma": "False", 
        "momentum": "0.9"
      }, 
      "inputs": [[106, 0, 0], [107, 0, 0], [108, 0, 0], [109, 0, 1], [110, 0, 1]]
    }, 
    {
      "op": "elemwise_add", 
      "name": "_plus2", 
      "inputs": [[111, 0, 0], [86, 0, 0]]
    }, 
    {
      "op": "null", 
      "name": "res3_block1_conv_sep_conv2d_weight", 
      "attrs": {
        "kernel": "(1, 1)", 
        "no_bias": "True", 
        "num_filter": "32", 
        "num_group": "1", 
        "pad": "(0, 0)", 
        "stride": "(1, 1)"
      }, 
      "inputs": []
    }, 
    {
      "op": "Convolution", 
      "name": "res3_block1_conv_sep_conv2d", 
      "attrs": {
        "kernel": "(1, 1)", 
        "no_bias": "True", 
        "num_filter": "32", 
        "num_group": "1", 
        "pad": "(0, 0)", 
        "stride": "(1, 1)"
      }, 
      "inputs": [[112, 0, 0], [113, 0, 0]]
    }, 
    {
      "op": "null", 
      "name": "res3_block1_conv_sep_batchnorm_gamma", 
      "attrs": {
        "fix_gamma": "False", 
        "momentum": "0.9"
      }, 
      "inputs": []
    }, 
    {
      "op": "null", 
      "name": "res3_block1_conv_sep_batchnorm_beta", 
      "attrs": {
        "fix_gamma": "False", 
        "momentum": "0.9"
      }, 
      "inputs": []
    }, 
    {
      "op": "null", 
      "name": "res3_block1_conv_sep_batchnorm_moving_mean", 
      "attrs": {
        "__init__": "[\"zero\", {}]", 
        "fix_gamma": "False", 
        "momentum": "0.9"
      }, 
      "inputs": []
    }, 
    {
      "op": "null", 
      "name": "res3_block1_conv_sep_batchnorm_moving_var", 
      "attrs": {
        "__init__": "[\"one\", {}]", 
        "fix_gamma": "False", 
        "momentum": "0.9"
      }, 
      "inputs": []
    }, 
    {
      "op": "BatchNorm", 
      "name": "res3_block1_conv_sep_batchnorm", 
      "attrs": {
        "fix_gamma": "False", 
        "momentum": "0.9"
      }, 
      "inputs": [[114, 0, 0], [115, 0, 0], [116, 0, 0], [117, 0, 1], [118, 0, 1]]
    }, 
    {
      "op": "null", 
      "name": "res3_block1_conv_sep_relu_gamma", 
      "attrs": {
        "__init__": "[\"Constant\", {\"value\": 0.25}]", 
        "act_type": "prelu"
      }, 
      "inputs": []
    }, 
    {
      "op": "LeakyReLU", 
      "name": "res3_block1_conv_sep_relu", 
      "attrs": {"act_type": "prelu"}, 
      "inputs": [[119, 0, 0], [120, 0, 0]]
    }, 
    {
      "op": "null", 
      "name": "res3_block1_conv_dw_conv2d_weight", 
      "attrs": {
        "kernel": "(3, 3)", 
        "no_bias": "True", 
        "num_filter": "32", 
        "num_group": "32", 
        "pad": "(1, 1)", 
        "stride": "(1, 1)"
      }, 
      "inputs": []
    }, 
    {
      "op": "Convolution", 
      "name": "res3_block1_conv_dw_conv2d", 
      "attrs": {
        "kernel": "(3, 3)", 
        "no_bias": "True", 
        "num_filter": "32", 
        "num_group": "32", 
        "pad": "(1, 1)", 
        "stride": "(1, 1)"
      }, 
      "inputs": [[121, 0, 0], [122, 0, 0]]
    }, 
    {
      "op": "null", 
      "name": "res3_block1_conv_dw_batchnorm_gamma", 
      "attrs": {
        "fix_gamma": "False", 
        "momentum": "0.9"
      }, 
      "inputs": []
    }, 
    {
      "op": "null", 
      "name": "res3_block1_conv_dw_batchnorm_beta", 
      "attrs": {
        "fix_gamma": "False", 
        "momentum": "0.9"
      }, 
      "inputs": []
    }, 
    {
      "op": "null", 
      "name": "res3_block1_conv_dw_batchnorm_moving_mean", 
      "attrs": {
        "__init__": "[\"zero\", {}]", 
        "fix_gamma": "False", 
        "momentum": "0.9"
      }, 
      "inputs": []
    }, 
    {
      "op": "null", 
      "name": "res3_block1_conv_dw_batchnorm_moving_var", 
      "attrs": {
        "__init__": "[\"one\", {}]", 
        "fix_gamma": "False", 
        "momentum": "0.9"
      }, 
      "inputs": []
    }, 
    {
      "op": "BatchNorm", 
      "name": "res3_block1_conv_dw_batchnorm", 
      "attrs": {
        "fix_gamma": "False", 
        "momentum": "0.9"
      }, 
      "inputs": [[123, 0, 0], [124, 0, 0], [125, 0, 0], [126, 0, 1], [127, 0, 1]]
    }, 
    {
      "op": "null", 
      "name": "res3_block1_conv_dw_relu_gamma", 
      "attrs": {
        "__init__": "[\"Constant\", {\"value\": 0.25}]", 
        "act_type": "prelu"
      }, 
      "inputs": []
    }, 
    {
      "op": "LeakyReLU", 
      "name": "res3_block1_conv_dw_relu", 
      "attrs": {"act_type": "prelu"}, 
      "inputs": [[128, 0, 0], [129, 0, 0]]
    }, 
    {
      "op": "null", 
      "name": "res3_block1_conv_proj_conv2d_weight", 
      "attrs": {
        "kernel": "(1, 1)", 
        "no_bias": "True", 
        "num_filter": "32", 
        "num_group": "1", 
        "pad": "(0, 0)", 
        "stride": "(1, 1)"
      }, 
      "inputs": []
    }, 
    {
      "op": "Convolution", 
      "name": "res3_block1_conv_proj_conv2d", 
      "attrs": {
        "kernel": "(1, 1)", 
        "no_bias": "True", 
        "num_filter": "32", 
        "num_group": "1", 
        "pad": "(0, 0)", 
        "stride": "(1, 1)"
      }, 
      "inputs": [[130, 0, 0], [131, 0, 0]]
    }, 
    {
      "op": "null", 
      "name": "res3_block1_conv_proj_batchnorm_gamma", 
      "attrs": {
        "fix_gamma": "False", 
        "momentum": "0.9"
      }, 
      "inputs": []
    }, 
    {
      "op": "null", 
      "name": "res3_block1_conv_proj_batchnorm_beta", 
      "attrs": {
        "fix_gamma": "False", 
        "momentum": "0.9"
      }, 
      "inputs": []
    }, 
    {
      "op": "null", 
      "name": "res3_block1_conv_proj_batchnorm_moving_mean", 
      "attrs": {
        "__init__": "[\"zero\", {}]", 
        "fix_gamma": "False", 
        "momentum": "0.9"
      }, 
      "inputs": []
    }, 
    {
      "op": "null", 
      "name": "res3_block1_conv_proj_batchnorm_moving_var", 
      "attrs": {
        "__init__": "[\"one\", {}]", 
        "fix_gamma": "False", 
        "momentum": "0.9"
      }, 
      "inputs": []
    }, 
    {
      "op": "BatchNorm", 
      "name": "res3_block1_conv_proj_batchnorm", 
      "attrs": {
        "fix_gamma": "False", 
        "momentum": "0.9"
      }, 
      "inputs": [[132, 0, 0], [133, 0, 0], [134, 0, 0], [135, 0, 1], [136, 0, 1]]
    }, 
    {
      "op": "elemwise_add", 
      "name": "_plus3", 
      "inputs": [[137, 0, 0], [112, 0, 0]]
    }, 
    {
      "op": "null", 
      "name": "res3_block2_conv_sep_conv2d_weight", 
      "attrs": {
        "kernel": "(1, 1)", 
        "no_bias": "True", 
        "num_filter": "32", 
        "num_group": "1", 
        "pad": "(0, 0)", 
        "stride": "(1, 1)"
      }, 
      "inputs": []
    }, 
    {
      "op": "Convolution", 
      "name": "res3_block2_conv_sep_conv2d", 
      "attrs": {
        "kernel": "(1, 1)", 
        "no_bias": "True", 
        "num_filter": "32", 
        "num_group": "1", 
        "pad": "(0, 0)", 
        "stride": "(1, 1)"
      }, 
      "inputs": [[138, 0, 0], [139, 0, 0]]
    }, 
    {
      "op": "null", 
      "name": "res3_block2_conv_sep_batchnorm_gamma", 
      "attrs": {
        "fix_gamma": "False", 
        "momentum": "0.9"
      }, 
      "inputs": []
    }, 
    {
      "op": "null", 
      "name": "res3_block2_conv_sep_batchnorm_beta", 
      "attrs": {
        "fix_gamma": "False", 
        "momentum": "0.9"
      }, 
      "inputs": []
    }, 
    {
      "op": "null", 
      "name": "res3_block2_conv_sep_batchnorm_moving_mean", 
      "attrs": {
        "__init__": "[\"zero\", {}]", 
        "fix_gamma": "False", 
        "momentum": "0.9"
      }, 
      "inputs": []
    }, 
    {
      "op": "null", 
      "name": "res3_block2_conv_sep_batchnorm_moving_var", 
      "attrs": {
        "__init__": "[\"one\", {}]", 
        "fix_gamma": "False", 
        "momentum": "0.9"
      }, 
      "inputs": []
    }, 
    {
      "op": "BatchNorm", 
      "name": "res3_block2_conv_sep_batchnorm", 
      "attrs": {
        "fix_gamma": "False", 
        "momentum": "0.9"
      }, 
      "inputs": [[140, 0, 0], [141, 0, 0], [142, 0, 0], [143, 0, 1], [144, 0, 1]]
    }, 
    {
      "op": "null", 
      "name": "res3_block2_conv_sep_relu_gamma", 
      "attrs": {
        "__init__": "[\"Constant\", {\"value\": 0.25}]", 
        "act_type": "prelu"
      }, 
      "inputs": []
    }, 
    {
      "op": "LeakyReLU", 
      "name": "res3_block2_conv_sep_relu", 
      "attrs": {"act_type": "prelu"}, 
      "inputs": [[145, 0, 0], [146, 0, 0]]
    }, 
    {
      "op": "null", 
      "name": "res3_block2_conv_dw_conv2d_weight", 
      "attrs": {
        "kernel": "(3, 3)", 
        "no_bias": "True", 
        "num_filter": "32", 
        "num_group": "32", 
        "pad": "(1, 1)", 
        "stride": "(1, 1)"
      }, 
      "inputs": []
    }, 
    {
      "op": "Convolution", 
      "name": "res3_block2_conv_dw_conv2d", 
      "attrs": {
        "kernel": "(3, 3)", 
        "no_bias": "True", 
        "num_filter": "32", 
        "num_group": "32", 
        "pad": "(1, 1)", 
        "stride": "(1, 1)"
      }, 
      "inputs": [[147, 0, 0], [148, 0, 0]]
    }, 
    {
      "op": "null", 
      "name": "res3_block2_conv_dw_batchnorm_gamma", 
      "attrs": {
        "fix_gamma": "False", 
        "momentum": "0.9"
      }, 
      "inputs": []
    }, 
    {
      "op": "null", 
      "name": "res3_block2_conv_dw_batchnorm_beta", 
      "attrs": {
        "fix_gamma": "False", 
        "momentum": "0.9"
      }, 
      "inputs": []
    }, 
    {
      "op": "null", 
      "name": "res3_block2_conv_dw_batchnorm_moving_mean", 
      "attrs": {
        "__init__": "[\"zero\", {}]", 
        "fix_gamma": "False", 
        "momentum": "0.9"
      }, 
      "inputs": []
    }, 
    {
      "op": "null", 
      "name": "res3_block2_conv_dw_batchnorm_moving_var", 
      "attrs": {
        "__init__": "[\"one\", {}]", 
        "fix_gamma": "False", 
        "momentum": "0.9"
      }, 
      "inputs": []
    }, 
    {
      "op": "BatchNorm", 
      "name": "res3_block2_conv_dw_batchnorm", 
      "attrs": {
        "fix_gamma": "False", 
        "momentum": "0.9"
      }, 
      "inputs": [[149, 0, 0], [150, 0, 0], [151, 0, 0], [152, 0, 1], [153, 0, 1]]
    }, 
    {
      "op": "null", 
      "name": "res3_block2_conv_dw_relu_gamma", 
      "attrs": {
        "__init__": "[\"Constant\", {\"value\": 0.25}]", 
        "act_type": "prelu"
      }, 
      "inputs": []
    }, 
    {
      "op": "LeakyReLU", 
      "name": "res3_block2_conv_dw_relu", 
      "attrs": {"act_type": "prelu"}, 
      "inputs": [[154, 0, 0], [155, 0, 0]]
    }, 
    {
      "op": "null", 
      "name": "res3_block2_conv_proj_conv2d_weight", 
      "attrs": {
        "kernel": "(1, 1)", 
        "no_bias": "True", 
        "num_filter": "32", 
        "num_group": "1", 
        "pad": "(0, 0)", 
        "stride": "(1, 1)"
      }, 
      "inputs": []
    }, 
    {
      "op": "Convolution", 
      "name": "res3_block2_conv_proj_conv2d", 
      "attrs": {
        "kernel": "(1, 1)", 
        "no_bias": "True", 
        "num_filter": "32", 
        "num_group": "1", 
        "pad": "(0, 0)", 
        "stride": "(1, 1)"
      }, 
      "inputs": [[156, 0, 0], [157, 0, 0]]
    }, 
    {
      "op": "null", 
      "name": "res3_block2_conv_proj_batchnorm_gamma", 
      "attrs": {
        "fix_gamma": "False", 
        "momentum": "0.9"
      }, 
      "inputs": []
    }, 
    {
      "op": "null", 
      "name": "res3_block2_conv_proj_batchnorm_beta", 
      "attrs": {
        "fix_gamma": "False", 
        "momentum": "0.9"
      }, 
      "inputs": []
    }, 
    {
      "op": "null", 
      "name": "res3_block2_conv_proj_batchnorm_moving_mean", 
      "attrs": {
        "__init__": "[\"zero\", {}]", 
        "fix_gamma": "False", 
        "momentum": "0.9"
      }, 
      "inputs": []
    }, 
    {
      "op": "null", 
      "name": "res3_block2_conv_proj_batchnorm_moving_var", 
      "attrs": {
        "__init__": "[\"one\", {}]", 
        "fix_gamma": "False", 
        "momentum": "0.9"
      }, 
      "inputs": []
    }, 
    {
      "op": "BatchNorm", 
      "name": "res3_block2_conv_proj_batchnorm", 
      "attrs": {
        "fix_gamma": "False", 
        "momentum": "0.9"
      }, 
      "inputs": [[158, 0, 0], [159, 0, 0], [160, 0, 0], [161, 0, 1], [162, 0, 1]]
    }, 
    {
      "op": "elemwise_add", 
      "name": "_plus4", 
      "inputs": [[163, 0, 0], [138, 0, 0]]
    }, 
    {
      "op": "null", 
      "name": "res3_block3_conv_sep_conv2d_weight", 
      "attrs": {
        "kernel": "(1, 1)", 
        "no_bias": "True", 
        "num_filter": "32", 
        "num_group": "1", 
        "pad": "(0, 0)", 
        "stride": "(1, 1)"
      }, 
      "inputs": []
    }, 
    {
      "op": "Convolution", 
      "name": "res3_block3_conv_sep_conv2d", 
      "attrs": {
        "kernel": "(1, 1)", 
        "no_bias": "True", 
        "num_filter": "32", 
        "num_group": "1", 
        "pad": "(0, 0)", 
        "stride": "(1, 1)"
      }, 
      "inputs": [[164, 0, 0], [165, 0, 0]]
    }, 
    {
      "op": "null", 
      "name": "res3_block3_conv_sep_batchnorm_gamma", 
      "attrs": {
        "fix_gamma": "False", 
        "momentum": "0.9"
      }, 
      "inputs": []
    }, 
    {
      "op": "null", 
      "name": "res3_block3_conv_sep_batchnorm_beta", 
      "attrs": {
        "fix_gamma": "False", 
        "momentum": "0.9"
      }, 
      "inputs": []
    }, 
    {
      "op": "null", 
      "name": "res3_block3_conv_sep_batchnorm_moving_mean", 
      "attrs": {
        "__init__": "[\"zero\", {}]", 
        "fix_gamma": "False", 
        "momentum": "0.9"
      }, 
      "inputs": []
    }, 
    {
      "op": "null", 
      "name": "res3_block3_conv_sep_batchnorm_moving_var", 
      "attrs": {
        "__init__": "[\"one\", {}]", 
        "fix_gamma": "False", 
        "momentum": "0.9"
      }, 
      "inputs": []
    }, 
    {
      "op": "BatchNorm", 
      "name": "res3_block3_conv_sep_batchnorm", 
      "attrs": {
        "fix_gamma": "False", 
        "momentum": "0.9"
      }, 
      "inputs": [[166, 0, 0], [167, 0, 0], [168, 0, 0], [169, 0, 1], [170, 0, 1]]
    }, 
    {
      "op": "null", 
      "name": "res3_block3_conv_sep_relu_gamma", 
      "attrs": {
        "__init__": "[\"Constant\", {\"value\": 0.25}]", 
        "act_type": "prelu"
      }, 
      "inputs": []
    }, 
    {
      "op": "LeakyReLU", 
      "name": "res3_block3_conv_sep_relu", 
      "attrs": {"act_type": "prelu"}, 
      "inputs": [[171, 0, 0], [172, 0, 0]]
    }, 
    {
      "op": "null", 
      "name": "res3_block3_conv_dw_conv2d_weight", 
      "attrs": {
        "kernel": "(3, 3)", 
        "no_bias": "True", 
        "num_filter": "32", 
        "num_group": "32", 
        "pad": "(1, 1)", 
        "stride": "(1, 1)"
      }, 
      "inputs": []
    }, 
    {
      "op": "Convolution", 
      "name": "res3_block3_conv_dw_conv2d", 
      "attrs": {
        "kernel": "(3, 3)", 
        "no_bias": "True", 
        "num_filter": "32", 
        "num_group": "32", 
        "pad": "(1, 1)", 
        "stride": "(1, 1)"
      }, 
      "inputs": [[173, 0, 0], [174, 0, 0]]
    }, 
    {
      "op": "null", 
      "name": "res3_block3_conv_dw_batchnorm_gamma", 
      "attrs": {
        "fix_gamma": "False", 
        "momentum": "0.9"
      }, 
      "inputs": []
    }, 
    {
      "op": "null", 
      "name": "res3_block3_conv_dw_batchnorm_beta", 
      "attrs": {
        "fix_gamma": "False", 
        "momentum": "0.9"
      }, 
      "inputs": []
    }, 
    {
      "op": "null", 
      "name": "res3_block3_conv_dw_batchnorm_moving_mean", 
      "attrs": {
        "__init__": "[\"zero\", {}]", 
        "fix_gamma": "False", 
        "momentum": "0.9"
      }, 
      "inputs": []
    }, 
    {
      "op": "null", 
      "name": "res3_block3_conv_dw_batchnorm_moving_var", 
      "attrs": {
        "__init__": "[\"one\", {}]", 
        "fix_gamma": "False", 
        "momentum": "0.9"
      }, 
      "inputs": []
    }, 
    {
      "op": "BatchNorm", 
      "name": "res3_block3_conv_dw_batchnorm", 
      "attrs": {
        "fix_gamma": "False", 
        "momentum": "0.9"
      }, 
      "inputs": [[175, 0, 0], [176, 0, 0], [177, 0, 0], [178, 0, 1], [179, 0, 1]]
    }, 
    {
      "op": "null", 
      "name": "res3_block3_conv_dw_relu_gamma", 
      "attrs": {
        "__init__": "[\"Constant\", {\"value\": 0.25}]", 
        "act_type": "prelu"
      }, 
      "inputs": []
    }, 
    {
      "op": "LeakyReLU", 
      "name": "res3_block3_conv_dw_relu", 
      "attrs": {"act_type": "prelu"}, 
      "inputs": [[180, 0, 0], [181, 0, 0]]
    }, 
    {
      "op": "null", 
      "name": "res3_block3_conv_proj_conv2d_weight", 
      "attrs": {
        "kernel": "(1, 1)", 
        "no_bias": "True", 
        "num_filter": "32", 
        "num_group": "1", 
        "pad": "(0, 0)", 
        "stride": "(1, 1)"
      }, 
      "inputs": []
    }, 
    {
      "op": "Convolution", 
      "name": "res3_block3_conv_proj_conv2d", 
      "attrs": {
        "kernel": "(1, 1)", 
        "no_bias": "True", 
        "num_filter": "32", 
        "num_group": "1", 
        "pad": "(0, 0)", 
        "stride": "(1, 1)"
      }, 
      "inputs": [[182, 0, 0], [183, 0, 0]]
    }, 
    {
      "op": "null", 
      "name": "res3_block3_conv_proj_batchnorm_gamma", 
      "attrs": {
        "fix_gamma": "False", 
        "momentum": "0.9"
      }, 
      "inputs": []
    }, 
    {
      "op": "null", 
      "name": "res3_block3_conv_proj_batchnorm_beta", 
      "attrs": {
        "fix_gamma": "False", 
        "momentum": "0.9"
      }, 
      "inputs": []
    }, 
    {
      "op": "null", 
      "name": "res3_block3_conv_proj_batchnorm_moving_mean", 
      "attrs": {
        "__init__": "[\"zero\", {}]", 
        "fix_gamma": "False", 
        "momentum": "0.9"
      }, 
      "inputs": []
    }, 
    {
      "op": "null", 
      "name": "res3_block3_conv_proj_batchnorm_moving_var", 
      "attrs": {
        "__init__": "[\"one\", {}]", 
        "fix_gamma": "False", 
        "momentum": "0.9"
      }, 
      "inputs": []
    }, 
    {
      "op": "BatchNorm", 
      "name": "res3_block3_conv_proj_batchnorm", 
      "attrs": {
        "fix_gamma": "False", 
        "momentum": "0.9"
      }, 
      "inputs": [[184, 0, 0], [185, 0, 0], [186, 0, 0], [187, 0, 1], [188, 0, 1]]
    }, 
    {
      "op": "elemwise_add", 
      "name": "_plus5", 
      "inputs": [[189, 0, 0], [164, 0, 0]]
    }, 
    {
      "op": "null", 
      "name": "res3_block4_conv_sep_conv2d_weight", 
      "attrs": {
        "kernel": "(1, 1)", 
        "no_bias": "True", 
        "num_filter": "32", 
        "num_group": "1", 
        "pad": "(0, 0)", 
        "stride": "(1, 1)"
      }, 
      "inputs": []
    }, 
    {
      "op": "Convolution", 
      "name": "res3_block4_conv_sep_conv2d", 
      "attrs": {
        "kernel": "(1, 1)", 
        "no_bias": "True", 
        "num_filter": "32", 
        "num_group": "1", 
        "pad": "(0, 0)", 
        "stride": "(1, 1)"
      }, 
      "inputs": [[190, 0, 0], [191, 0, 0]]
    }, 
    {
      "op": "null", 
      "name": "res3_block4_conv_sep_batchnorm_gamma", 
      "attrs": {
        "fix_gamma": "False", 
        "momentum": "0.9"
      }, 
      "inputs": []
    }, 
    {
      "op": "null", 
      "name": "res3_block4_conv_sep_batchnorm_beta", 
      "attrs": {
        "fix_gamma": "False", 
        "momentum": "0.9"
      }, 
      "inputs": []
    }, 
    {
      "op": "null", 
      "name": "res3_block4_conv_sep_batchnorm_moving_mean", 
      "attrs": {
        "__init__": "[\"zero\", {}]", 
        "fix_gamma": "False", 
        "momentum": "0.9"
      }, 
      "inputs": []
    }, 
    {
      "op": "null", 
      "name": "res3_block4_conv_sep_batchnorm_moving_var", 
      "attrs": {
        "__init__": "[\"one\", {}]", 
        "fix_gamma": "False", 
        "momentum": "0.9"
      }, 
      "inputs": []
    }, 
    {
      "op": "BatchNorm", 
      "name": "res3_block4_conv_sep_batchnorm", 
      "attrs": {
        "fix_gamma": "False", 
        "momentum": "0.9"
      }, 
      "inputs": [[192, 0, 0], [193, 0, 0], [194, 0, 0], [195, 0, 1], [196, 0, 1]]
    }, 
    {
      "op": "null", 
      "name": "res3_block4_conv_sep_relu_gamma", 
      "attrs": {
        "__init__": "[\"Constant\", {\"value\": 0.25}]", 
        "act_type": "prelu"
      }, 
      "inputs": []
    }, 
    {
      "op": "LeakyReLU", 
      "name": "res3_block4_conv_sep_relu", 
      "attrs": {"act_type": "prelu"}, 
      "inputs": [[197, 0, 0], [198, 0, 0]]
    }, 
    {
      "op": "null", 
      "name": "res3_block4_conv_dw_conv2d_weight", 
      "attrs": {
        "kernel": "(3, 3)", 
        "no_bias": "True", 
        "num_filter": "32", 
        "num_group": "32", 
        "pad": "(1, 1)", 
        "stride": "(1, 1)"
      }, 
      "inputs": []
    }, 
    {
      "op": "Convolution", 
      "name": "res3_block4_conv_dw_conv2d", 
      "attrs": {
        "kernel": "(3, 3)", 
        "no_bias": "True", 
        "num_filter": "32", 
        "num_group": "32", 
        "pad": "(1, 1)", 
        "stride": "(1, 1)"
      }, 
      "inputs": [[199, 0, 0], [200, 0, 0]]
    }, 
    {
      "op": "null", 
      "name": "res3_block4_conv_dw_batchnorm_gamma", 
      "attrs": {
        "fix_gamma": "False", 
        "momentum": "0.9"
      }, 
      "inputs": []
    }, 
    {
      "op": "null", 
      "name": "res3_block4_conv_dw_batchnorm_beta", 
      "attrs": {
        "fix_gamma": "False", 
        "momentum": "0.9"
      }, 
      "inputs": []
    }, 
    {
      "op": "null", 
      "name": "res3_block4_conv_dw_batchnorm_moving_mean", 
      "attrs": {
        "__init__": "[\"zero\", {}]", 
        "fix_gamma": "False", 
        "momentum": "0.9"
      }, 
      "inputs": []
    }, 
    {
      "op": "null", 
      "name": "res3_block4_conv_dw_batchnorm_moving_var", 
      "attrs": {
        "__init__": "[\"one\", {}]", 
        "fix_gamma": "False", 
        "momentum": "0.9"
      }, 
      "inputs": []
    }, 
    {
      "op": "BatchNorm", 
      "name": "res3_block4_conv_dw_batchnorm", 
      "attrs": {
        "fix_gamma": "False", 
        "momentum": "0.9"
      }, 
      "inputs": [[201, 0, 0], [202, 0, 0], [203, 0, 0], [204, 0, 1], [205, 0, 1]]
    }, 
    {
      "op": "null", 
      "name": "res3_block4_conv_dw_relu_gamma", 
      "attrs": {
        "__init__": "[\"Constant\", {\"value\": 0.25}]", 
        "act_type": "prelu"
      }, 
      "inputs": []
    }, 
    {
      "op": "LeakyReLU", 
      "name": "res3_block4_conv_dw_relu", 
      "attrs": {"act_type": "prelu"}, 
      "inputs": [[206, 0, 0], [207, 0, 0]]
    }, 
    {
      "op": "null", 
      "name": "res3_block4_conv_proj_conv2d_weight", 
      "attrs": {
        "kernel": "(1, 1)", 
        "no_bias": "True", 
        "num_filter": "32", 
        "num_group": "1", 
        "pad": "(0, 0)", 
        "stride": "(1, 1)"
      }, 
      "inputs": []
    }, 
    {
      "op": "Convolution", 
      "name": "res3_block4_conv_proj_conv2d", 
      "attrs": {
        "kernel": "(1, 1)", 
        "no_bias": "True", 
        "num_filter": "32", 
        "num_group": "1", 
        "pad": "(0, 0)", 
        "stride": "(1, 1)"
      }, 
      "inputs": [[208, 0, 0], [209, 0, 0]]
    }, 
    {
      "op": "null", 
      "name": "res3_block4_conv_proj_batchnorm_gamma", 
      "attrs": {
        "fix_gamma": "False", 
        "momentum": "0.9"
      }, 
      "inputs": []
    }, 
    {
      "op": "null", 
      "name": "res3_block4_conv_proj_batchnorm_beta", 
      "attrs": {
        "fix_gamma": "False", 
        "momentum": "0.9"
      }, 
      "inputs": []
    }, 
    {
      "op": "null", 
      "name": "res3_block4_conv_proj_batchnorm_moving_mean", 
      "attrs": {
        "__init__": "[\"zero\", {}]", 
        "fix_gamma": "False", 
        "momentum": "0.9"
      }, 
      "inputs": []
    }, 
    {
      "op": "null", 
      "name": "res3_block4_conv_proj_batchnorm_moving_var", 
      "attrs": {
        "__init__": "[\"one\", {}]", 
        "fix_gamma": "False", 
        "momentum": "0.9"
      }, 
      "inputs": []
    }, 
    {
      "op": "BatchNorm", 
      "name": "res3_block4_conv_proj_batchnorm", 
      "attrs": {
        "fix_gamma": "False", 
        "momentum": "0.9"
      }, 
      "inputs": [[210, 0, 0], [211, 0, 0], [212, 0, 0], [213, 0, 1], [214, 0, 1]]
    }, 
    {
      "op": "elemwise_add", 
      "name": "_plus6", 
      "inputs": [[215, 0, 0], [190, 0, 0]]
    }, 
    {
      "op": "null", 
      "name": "res3_block5_conv_sep_conv2d_weight", 
      "attrs": {
        "kernel": "(1, 1)", 
        "no_bias": "True", 
        "num_filter": "32", 
        "num_group": "1", 
        "pad": "(0, 0)", 
        "stride": "(1, 1)"
      }, 
      "inputs": []
    }, 
    {
      "op": "Convolution", 
      "name": "res3_block5_conv_sep_conv2d", 
      "attrs": {
        "kernel": "(1, 1)", 
        "no_bias": "True", 
        "num_filter": "32", 
        "num_group": "1", 
        "pad": "(0, 0)", 
        "stride": "(1, 1)"
      }, 
      "inputs": [[216, 0, 0], [217, 0, 0]]
    }, 
    {
      "op": "null", 
      "name": "res3_block5_conv_sep_batchnorm_gamma", 
      "attrs": {
        "fix_gamma": "False", 
        "momentum": "0.9"
      }, 
      "inputs": []
    }, 
    {
      "op": "null", 
      "name": "res3_block5_conv_sep_batchnorm_beta", 
      "attrs": {
        "fix_gamma": "False", 
        "momentum": "0.9"
      }, 
      "inputs": []
    }, 
    {
      "op": "null", 
      "name": "res3_block5_conv_sep_batchnorm_moving_mean", 
      "attrs": {
        "__init__": "[\"zero\", {}]", 
        "fix_gamma": "False", 
        "momentum": "0.9"
      }, 
      "inputs": []
    }, 
    {
      "op": "null", 
      "name": "res3_block5_conv_sep_batchnorm_moving_var", 
      "attrs": {
        "__init__": "[\"one\", {}]", 
        "fix_gamma": "False", 
        "momentum": "0.9"
      }, 
      "inputs": []
    }, 
    {
      "op": "BatchNorm", 
      "name": "res3_block5_conv_sep_batchnorm", 
      "attrs": {
        "fix_gamma": "False", 
        "momentum": "0.9"
      }, 
      "inputs": [[218, 0, 0], [219, 0, 0], [220, 0, 0], [221, 0, 1], [222, 0, 1]]
    }, 
    {
      "op": "null", 
      "name": "res3_block5_conv_sep_relu_gamma", 
      "attrs": {
        "__init__": "[\"Constant\", {\"value\": 0.25}]", 
        "act_type": "prelu"
      }, 
      "inputs": []
    }, 
    {
      "op": "LeakyReLU", 
      "name": "res3_block5_conv_sep_relu", 
      "attrs": {"act_type": "prelu"}, 
      "inputs": [[223, 0, 0], [224, 0, 0]]
    }, 
    {
      "op": "null", 
      "name": "res3_block5_conv_dw_conv2d_weight", 
      "attrs": {
        "kernel": "(3, 3)", 
        "no_bias": "True", 
        "num_filter": "32", 
        "num_group": "32", 
        "pad": "(1, 1)", 
        "stride": "(1, 1)"
      }, 
      "inputs": []
    }, 
    {
      "op": "Convolution", 
      "name": "res3_block5_conv_dw_conv2d", 
      "attrs": {
        "kernel": "(3, 3)", 
        "no_bias": "True", 
        "num_filter": "32", 
        "num_group": "32", 
        "pad": "(1, 1)", 
        "stride": "(1, 1)"
      }, 
      "inputs": [[225, 0, 0], [226, 0, 0]]
    }, 
    {
      "op": "null", 
      "name": "res3_block5_conv_dw_batchnorm_gamma", 
      "attrs": {
        "fix_gamma": "False", 
        "momentum": "0.9"
      }, 
      "inputs": []
    }, 
    {
      "op": "null", 
      "name": "res3_block5_conv_dw_batchnorm_beta", 
      "attrs": {
        "fix_gamma": "False", 
        "momentum": "0.9"
      }, 
      "inputs": []
    }, 
    {
      "op": "null", 
      "name": "res3_block5_conv_dw_batchnorm_moving_mean", 
      "attrs": {
        "__init__": "[\"zero\", {}]", 
        "fix_gamma": "False", 
        "momentum": "0.9"
      }, 
      "inputs": []
    }, 
    {
      "op": "null", 
      "name": "res3_block5_conv_dw_batchnorm_moving_var", 
      "attrs": {
        "__init__": "[\"one\", {}]", 
        "fix_gamma": "False", 
        "momentum": "0.9"
      }, 
      "inputs": []
    }, 
    {
      "op": "BatchNorm", 
      "name": "res3_block5_conv_dw_batchnorm", 
      "attrs": {
        "fix_gamma": "False", 
        "momentum": "0.9"
      }, 
      "inputs": [[227, 0, 0], [228, 0, 0], [229, 0, 0], [230, 0, 1], [231, 0, 1]]
    }, 
    {
      "op": "null", 
      "name": "res3_block5_conv_dw_relu_gamma", 
      "attrs": {
        "__init__": "[\"Constant\", {\"value\": 0.25}]", 
        "act_type": "prelu"
      }, 
      "inputs": []
    }, 
    {
      "op": "LeakyReLU", 
      "name": "res3_block5_conv_dw_relu", 
      "attrs": {"act_type": "prelu"}, 
      "inputs": [[232, 0, 0], [233, 0, 0]]
    }, 
    {
      "op": "null", 
      "name": "res3_block5_conv_proj_conv2d_weight", 
      "attrs": {
        "kernel": "(1, 1)", 
        "no_bias": "True", 
        "num_filter": "32", 
        "num_group": "1", 
        "pad": "(0, 0)", 
        "stride": "(1, 1)"
      }, 
      "inputs": []
    }, 
    {
      "op": "Convolution", 
      "name": "res3_block5_conv_proj_conv2d", 
      "attrs": {
        "kernel": "(1, 1)", 
        "no_bias": "True", 
        "num_filter": "32", 
        "num_group": "1", 
        "pad": "(0, 0)", 
        "stride": "(1, 1)"
      }, 
      "inputs": [[234, 0, 0], [235, 0, 0]]
    }, 
    {
      "op": "null", 
      "name": "res3_block5_conv_proj_batchnorm_gamma", 
      "attrs": {
        "fix_gamma": "False", 
        "momentum": "0.9"
      }, 
      "inputs": []
    }, 
    {
      "op": "null", 
      "name": "res3_block5_conv_proj_batchnorm_beta", 
      "attrs": {
        "fix_gamma": "False", 
        "momentum": "0.9"
      }, 
      "inputs": []
    }, 
    {
      "op": "null", 
      "name": "res3_block5_conv_proj_batchnorm_moving_mean", 
      "attrs": {
        "__init__": "[\"zero\", {}]", 
        "fix_gamma": "False", 
        "momentum": "0.9"
      }, 
      "inputs": []
    }, 
    {
      "op": "null", 
      "name": "res3_block5_conv_proj_batchnorm_moving_var", 
      "attrs": {
        "__init__": "[\"one\", {}]", 
        "fix_gamma": "False", 
        "momentum": "0.9"
      }, 
      "inputs": []
    }, 
    {
      "op": "BatchNorm", 
      "name": "res3_block5_conv_proj_batchnorm", 
      "attrs": {
        "fix_gamma": "False", 
        "momentum": "0.9"
      }, 
      "inputs": [[236, 0, 0], [237, 0, 0], [238, 0, 0], [239, 0, 1], [240, 0, 1]]
    }, 
    {
      "op": "elemwise_add", 
      "name": "_plus7", 
      "inputs": [[241, 0, 0], [216, 0, 0]]
    }, 
    {
      "op": "null", 
      "name": "dconv34_conv_sep_conv2d_weight", 
      "attrs": {
        "kernel": "(1, 1)", 
        "no_bias": "True", 
        "num_filter": "64", 
        "num_group": "1", 
        "pad": "(0, 0)", 
        "stride": "(1, 1)"
      }, 
      "inputs": []
    }, 
    {
      "op": "Convolution", 
      "name": "dconv34_conv_sep_conv2d", 
      "attrs": {
        "kernel": "(1, 1)", 
        "no_bias": "True", 
        "num_filter": "64", 
        "num_group": "1", 
        "pad": "(0, 0)", 
        "stride": "(1, 1)"
      }, 
      "inputs": [[242, 0, 0], [243, 0, 0]]
    }, 
    {
      "op": "null", 
      "name": "dconv34_conv_sep_batchnorm_gamma", 
      "attrs": {
        "fix_gamma": "False", 
        "momentum": "0.9"
      }, 
      "inputs": []
    }, 
    {
      "op": "null", 
      "name": "dconv34_conv_sep_batchnorm_beta", 
      "attrs": {
        "fix_gamma": "False", 
        "momentum": "0.9"
      }, 
      "inputs": []
    }, 
    {
      "op": "null", 
      "name": "dconv34_conv_sep_batchnorm_moving_mean", 
      "attrs": {
        "__init__": "[\"zero\", {}]", 
        "fix_gamma": "False", 
        "momentum": "0.9"
      }, 
      "inputs": []
    }, 
    {
      "op": "null", 
      "name": "dconv34_conv_sep_batchnorm_moving_var", 
      "attrs": {
        "__init__": "[\"one\", {}]", 
        "fix_gamma": "False", 
        "momentum": "0.9"
      }, 
      "inputs": []
    }, 
    {
      "op": "BatchNorm", 
      "name": "dconv34_conv_sep_batchnorm", 
      "attrs": {
        "fix_gamma": "False", 
        "momentum": "0.9"
      }, 
      "inputs": [[244, 0, 0], [245, 0, 0], [246, 0, 0], [247, 0, 1], [248, 0, 1]]
    }, 
    {
      "op": "null", 
      "name": "dconv34_conv_sep_relu_gamma", 
      "attrs": {
        "__init__": "[\"Constant\", {\"value\": 0.25}]", 
        "act_type": "prelu"
      }, 
      "inputs": []
    }, 
    {
      "op": "LeakyReLU", 
      "name": "dconv34_conv_sep_relu", 
      "attrs": {"act_type": "prelu"}, 
      "inputs": [[249, 0, 0], [250, 0, 0]]
    }, 
    {
      "op": "null", 
      "name": "dconv34_conv_dw_conv2d_weight", 
      "attrs": {
        "kernel": "(3, 3)", 
        "no_bias": "True", 
        "num_filter": "64", 
        "num_group": "64", 
        "pad": "(1, 1)", 
        "stride": "(2, 2)"
      }, 
      "inputs": []
    }, 
    {
      "op": "Convolution", 
      "name": "dconv34_conv_dw_conv2d", 
      "attrs": {
        "kernel": "(3, 3)", 
        "no_bias": "True", 
        "num_filter": "64", 
        "num_group": "64", 
        "pad": "(1, 1)", 
        "stride": "(2, 2)"
      }, 
      "inputs": [[251, 0, 0], [252, 0, 0]]
    }, 
    {
      "op": "null", 
      "name": "dconv34_conv_dw_batchnorm_gamma", 
      "attrs": {
        "fix_gamma": "False", 
        "momentum": "0.9"
      }, 
      "inputs": []
    }, 
    {
      "op": "null", 
      "name": "dconv34_conv_dw_batchnorm_beta", 
      "attrs": {
        "fix_gamma": "False", 
        "momentum": "0.9"
      }, 
      "inputs": []
    }, 
    {
      "op": "null", 
      "name": "dconv34_conv_dw_batchnorm_moving_mean", 
      "attrs": {
        "__init__": "[\"zero\", {}]", 
        "fix_gamma": "False", 
        "momentum": "0.9"
      }, 
      "inputs": []
    }, 
    {
      "op": "null", 
      "name": "dconv34_conv_dw_batchnorm_moving_var", 
      "attrs": {
        "__init__": "[\"one\", {}]", 
        "fix_gamma": "False", 
        "momentum": "0.9"
      }, 
      "inputs": []
    }, 
    {
      "op": "BatchNorm", 
      "name": "dconv34_conv_dw_batchnorm", 
      "attrs": {
        "fix_gamma": "False", 
        "momentum": "0.9"
      }, 
      "inputs": [[253, 0, 0], [254, 0, 0], [255, 0, 0], [256, 0, 1], [257, 0, 1]]
    }, 
    {
      "op": "null", 
      "name": "dconv34_conv_dw_relu_gamma", 
      "attrs": {
        "__init__": "[\"Constant\", {\"value\": 0.25}]", 
        "act_type": "prelu"
      }, 
      "inputs": []
    }, 
    {
      "op": "LeakyReLU", 
      "name": "dconv34_conv_dw_relu", 
      "attrs": {"act_type": "prelu"}, 
      "inputs": [[258, 0, 0], [259, 0, 0]]
    }, 
    {
      "op": "null", 
      "name": "dconv34_conv_proj_conv2d_weight", 
      "attrs": {
        "kernel": "(1, 1)", 
        "no_bias": "True", 
        "num_filter": "64", 
        "num_group": "1", 
        "pad": "(0, 0)", 
        "stride": "(1, 1)"
      }, 
      "inputs": []
    }, 
    {
      "op": "Convolution", 
      "name": "dconv34_conv_proj_conv2d", 
      "attrs": {
        "kernel": "(1, 1)", 
        "no_bias": "True", 
        "num_filter": "64", 
        "num_group": "1", 
        "pad": "(0, 0)", 
        "stride": "(1, 1)"
      }, 
      "inputs": [[260, 0, 0], [261, 0, 0]]
    }, 
    {
      "op": "null", 
      "name": "dconv34_conv_proj_batchnorm_gamma", 
      "attrs": {
        "fix_gamma": "False", 
        "momentum": "0.9"
      }, 
      "inputs": []
    }, 
    {
      "op": "null", 
      "name": "dconv34_conv_proj_batchnorm_beta", 
      "attrs": {
        "fix_gamma": "False", 
        "momentum": "0.9"
      }, 
      "inputs": []
    }, 
    {
      "op": "null", 
      "name": "dconv34_conv_proj_batchnorm_moving_mean", 
      "attrs": {
        "__init__": "[\"zero\", {}]", 
        "fix_gamma": "False", 
        "momentum": "0.9"
      }, 
      "inputs": []
    }, 
    {
      "op": "null", 
      "name": "dconv34_conv_proj_batchnorm_moving_var", 
      "attrs": {
        "__init__": "[\"one\", {}]", 
        "fix_gamma": "False", 
        "momentum": "0.9"
      }, 
      "inputs": []
    }, 
    {
      "op": "BatchNorm", 
      "name": "dconv34_conv_proj_batchnorm", 
      "attrs": {
        "fix_gamma": "False", 
        "momentum": "0.9"
      }, 
      "inputs": [[262, 0, 0], [263, 0, 0], [264, 0, 0], [265, 0, 1], [266, 0, 1]]
    }, 
    {
      "op": "null", 
      "name": "res4_block0_conv_sep_conv2d_weight", 
      "attrs": {
        "kernel": "(1, 1)", 
        "no_bias": "True", 
        "num_filter": "64", 
        "num_group": "1", 
        "pad": "(0, 0)", 
        "stride": "(1, 1)"
      }, 
      "inputs": []
    }, 
    {
      "op": "Convolution", 
      "name": "res4_block0_conv_sep_conv2d", 
      "attrs": {
        "kernel": "(1, 1)", 
        "no_bias": "True", 
        "num_filter": "64", 
        "num_group": "1", 
        "pad": "(0, 0)", 
        "stride": "(1, 1)"
      }, 
      "inputs": [[267, 0, 0], [268, 0, 0]]
    }, 
    {
      "op": "null", 
      "name": "res4_block0_conv_sep_batchnorm_gamma", 
      "attrs": {
        "fix_gamma": "False", 
        "momentum": "0.9"
      }, 
      "inputs": []
    }, 
    {
      "op": "null", 
      "name": "res4_block0_conv_sep_batchnorm_beta", 
      "attrs": {
        "fix_gamma": "False", 
        "momentum": "0.9"
      }, 
      "inputs": []
    }, 
    {
      "op": "null", 
      "name": "res4_block0_conv_sep_batchnorm_moving_mean", 
      "attrs": {
        "__init__": "[\"zero\", {}]", 
        "fix_gamma": "False", 
        "momentum": "0.9"
      }, 
      "inputs": []
    }, 
    {
      "op": "null", 
      "name": "res4_block0_conv_sep_batchnorm_moving_var", 
      "attrs": {
        "__init__": "[\"one\", {}]", 
        "fix_gamma": "False", 
        "momentum": "0.9"
      }, 
      "inputs": []
    }, 
    {
      "op": "BatchNorm", 
      "name": "res4_block0_conv_sep_batchnorm", 
      "attrs": {
        "fix_gamma": "False", 
        "momentum": "0.9"
      }, 
      "inputs": [[269, 0, 0], [270, 0, 0], [271, 0, 0], [272, 0, 1], [273, 0, 1]]
    }, 
    {
      "op": "null", 
      "name": "res4_block0_conv_sep_relu_gamma", 
      "attrs": {
        "__init__": "[\"Constant\", {\"value\": 0.25}]", 
        "act_type": "prelu"
      }, 
      "inputs": []
    }, 
    {
      "op": "LeakyReLU", 
      "name": "res4_block0_conv_sep_relu", 
      "attrs": {"act_type": "prelu"}, 
      "inputs": [[274, 0, 0], [275, 0, 0]]
    }, 
    {
      "op": "null", 
      "name": "res4_block0_conv_dw_conv2d_weight", 
      "attrs": {
        "kernel": "(3, 3)", 
        "no_bias": "True", 
        "num_filter": "64", 
        "num_group": "64", 
        "pad": "(1, 1)", 
        "stride": "(1, 1)"
      }, 
      "inputs": []
    }, 
    {
      "op": "Convolution", 
      "name": "res4_block0_conv_dw_conv2d", 
      "attrs": {
        "kernel": "(3, 3)", 
        "no_bias": "True", 
        "num_filter": "64", 
        "num_group": "64", 
        "pad": "(1, 1)", 
        "stride": "(1, 1)"
      }, 
      "inputs": [[276, 0, 0], [277, 0, 0]]
    }, 
    {
      "op": "null", 
      "name": "res4_block0_conv_dw_batchnorm_gamma", 
      "attrs": {
        "fix_gamma": "False", 
        "momentum": "0.9"
      }, 
      "inputs": []
    }, 
    {
      "op": "null", 
      "name": "res4_block0_conv_dw_batchnorm_beta", 
      "attrs": {
        "fix_gamma": "False", 
        "momentum": "0.9"
      }, 
      "inputs": []
    }, 
    {
      "op": "null", 
      "name": "res4_block0_conv_dw_batchnorm_moving_mean", 
      "attrs": {
        "__init__": "[\"zero\", {}]", 
        "fix_gamma": "False", 
        "momentum": "0.9"
      }, 
      "inputs": []
    }, 
    {
      "op": "null", 
      "name": "res4_block0_conv_dw_batchnorm_moving_var", 
      "attrs": {
        "__init__": "[\"one\", {}]", 
        "fix_gamma": "False", 
        "momentum": "0.9"
      }, 
      "inputs": []
    }, 
    {
      "op": "BatchNorm", 
      "name": "res4_block0_conv_dw_batchnorm", 
      "attrs": {
        "fix_gamma": "False", 
        "momentum": "0.9"
      }, 
      "inputs": [[278, 0, 0], [279, 0, 0], [280, 0, 0], [281, 0, 1], [282, 0, 1]]
    }, 
    {
      "op": "null", 
      "name": "res4_block0_conv_dw_relu_gamma", 
      "attrs": {
        "__init__": "[\"Constant\", {\"value\": 0.25}]", 
        "act_type": "prelu"
      }, 
      "inputs": []
    }, 
    {
      "op": "LeakyReLU", 
      "name": "res4_block0_conv_dw_relu", 
      "attrs": {"act_type": "prelu"}, 
      "inputs": [[283, 0, 0], [284, 0, 0]]
    }, 
    {
      "op": "null", 
      "name": "res4_block0_conv_proj_conv2d_weight", 
      "attrs": {
        "kernel": "(1, 1)", 
        "no_bias": "True", 
        "num_filter": "64", 
        "num_group": "1", 
        "pad": "(0, 0)", 
        "stride": "(1, 1)"
      }, 
      "inputs": []
    }, 
    {
      "op": "Convolution", 
      "name": "res4_block0_conv_proj_conv2d", 
      "attrs": {
        "kernel": "(1, 1)", 
        "no_bias": "True", 
        "num_filter": "64", 
        "num_group": "1", 
        "pad": "(0, 0)", 
        "stride": "(1, 1)"
      }, 
      "inputs": [[285, 0, 0], [286, 0, 0]]
    }, 
    {
      "op": "null", 
      "name": "res4_block0_conv_proj_batchnorm_gamma", 
      "attrs": {
        "fix_gamma": "False", 
        "momentum": "0.9"
      }, 
      "inputs": []
    }, 
    {
      "op": "null", 
      "name": "res4_block0_conv_proj_batchnorm_beta", 
      "attrs": {
        "fix_gamma": "False", 
        "momentum": "0.9"
      }, 
      "inputs": []
    }, 
    {
      "op": "null", 
      "name": "res4_block0_conv_proj_batchnorm_moving_mean", 
      "attrs": {
        "__init__": "[\"zero\", {}]", 
        "fix_gamma": "False", 
        "momentum": "0.9"
      }, 
      "inputs": []
    }, 
    {
      "op": "null", 
      "name": "res4_block0_conv_proj_batchnorm_moving_var", 
      "attrs": {
        "__init__": "[\"one\", {}]", 
        "fix_gamma": "False", 
        "momentum": "0.9"
      }, 
      "inputs": []
    }, 
    {
      "op": "BatchNorm", 
      "name": "res4_block0_conv_proj_batchnorm", 
      "attrs": {
        "fix_gamma": "False", 
        "momentum": "0.9"
      }, 
      "inputs": [[287, 0, 0], [288, 0, 0], [289, 0, 0], [290, 0, 1], [291, 0, 1]]
    }, 
    {
      "op": "elemwise_add", 
      "name": "_plus8", 
      "inputs": [[292, 0, 0], [267, 0, 0]]
    }, 
    {
      "op": "null", 
      "name": "res4_block1_conv_sep_conv2d_weight", 
      "attrs": {
        "kernel": "(1, 1)", 
        "no_bias": "True", 
        "num_filter": "64", 
        "num_group": "1", 
        "pad": "(0, 0)", 
        "stride": "(1, 1)"
      }, 
      "inputs": []
    }, 
    {
      "op": "Convolution", 
      "name": "res4_block1_conv_sep_conv2d", 
      "attrs": {
        "kernel": "(1, 1)", 
        "no_bias": "True", 
        "num_filter": "64", 
        "num_group": "1", 
        "pad": "(0, 0)", 
        "stride": "(1, 1)"
      }, 
      "inputs": [[293, 0, 0], [294, 0, 0]]
    }, 
    {
      "op": "null", 
      "name": "res4_block1_conv_sep_batchnorm_gamma", 
      "attrs": {
        "fix_gamma": "False", 
        "momentum": "0.9"
      }, 
      "inputs": []
    }, 
    {
      "op": "null", 
      "name": "res4_block1_conv_sep_batchnorm_beta", 
      "attrs": {
        "fix_gamma": "False", 
        "momentum": "0.9"
      }, 
      "inputs": []
    }, 
    {
      "op": "null", 
      "name": "res4_block1_conv_sep_batchnorm_moving_mean", 
      "attrs": {
        "__init__": "[\"zero\", {}]", 
        "fix_gamma": "False", 
        "momentum": "0.9"
      }, 
      "inputs": []
    }, 
    {
      "op": "null", 
      "name": "res4_block1_conv_sep_batchnorm_moving_var", 
      "attrs": {
        "__init__": "[\"one\", {}]", 
        "fix_gamma": "False", 
        "momentum": "0.9"
      }, 
      "inputs": []
    }, 
    {
      "op": "BatchNorm", 
      "name": "res4_block1_conv_sep_batchnorm", 
      "attrs": {
        "fix_gamma": "False", 
        "momentum": "0.9"
      }, 
      "inputs": [[295, 0, 0], [296, 0, 0], [297, 0, 0], [298, 0, 1], [299, 0, 1]]
    }, 
    {
      "op": "null", 
      "name": "res4_block1_conv_sep_relu_gamma", 
      "attrs": {
        "__init__": "[\"Constant\", {\"value\": 0.25}]", 
        "act_type": "prelu"
      }, 
      "inputs": []
    }, 
    {
      "op": "LeakyReLU", 
      "name": "res4_block1_conv_sep_relu", 
      "attrs": {"act_type": "prelu"}, 
      "inputs": [[300, 0, 0], [301, 0, 0]]
    }, 
    {
      "op": "null", 
      "name": "res4_block1_conv_dw_conv2d_weight", 
      "attrs": {
        "kernel": "(3, 3)", 
        "no_bias": "True", 
        "num_filter": "64", 
        "num_group": "64", 
        "pad": "(1, 1)", 
        "stride": "(1, 1)"
      }, 
      "inputs": []
    }, 
    {
      "op": "Convolution", 
      "name": "res4_block1_conv_dw_conv2d", 
      "attrs": {
        "kernel": "(3, 3)", 
        "no_bias": "True", 
        "num_filter": "64", 
        "num_group": "64", 
        "pad": "(1, 1)", 
        "stride": "(1, 1)"
      }, 
      "inputs": [[302, 0, 0], [303, 0, 0]]
    }, 
    {
      "op": "null", 
      "name": "res4_block1_conv_dw_batchnorm_gamma", 
      "attrs": {
        "fix_gamma": "False", 
        "momentum": "0.9"
      }, 
      "inputs": []
    }, 
    {
      "op": "null", 
      "name": "res4_block1_conv_dw_batchnorm_beta", 
      "attrs": {
        "fix_gamma": "False", 
        "momentum": "0.9"
      }, 
      "inputs": []
    }, 
    {
      "op": "null", 
      "name": "res4_block1_conv_dw_batchnorm_moving_mean", 
      "attrs": {
        "__init__": "[\"zero\", {}]", 
        "fix_gamma": "False", 
        "momentum": "0.9"
      }, 
      "inputs": []
    }, 
    {
      "op": "null", 
      "name": "res4_block1_conv_dw_batchnorm_moving_var", 
      "attrs": {
        "__init__": "[\"one\", {}]", 
        "fix_gamma": "False", 
        "momentum": "0.9"
      }, 
      "inputs": []
    }, 
    {
      "op": "BatchNorm", 
      "name": "res4_block1_conv_dw_batchnorm", 
      "attrs": {
        "fix_gamma": "False", 
        "momentum": "0.9"
      }, 
      "inputs": [[304, 0, 0], [305, 0, 0], [306, 0, 0], [307, 0, 1], [308, 0, 1]]
    }, 
    {
      "op": "null", 
      "name": "res4_block1_conv_dw_relu_gamma", 
      "attrs": {
        "__init__": "[\"Constant\", {\"value\": 0.25}]", 
        "act_type": "prelu"
      }, 
      "inputs": []
    }, 
    {
      "op": "LeakyReLU", 
      "name": "res4_block1_conv_dw_relu", 
      "attrs": {"act_type": "prelu"}, 
      "inputs": [[309, 0, 0], [310, 0, 0]]
    }, 
    {
      "op": "null", 
      "name": "res4_block1_conv_proj_conv2d_weight", 
      "attrs": {
        "kernel": "(1, 1)", 
        "no_bias": "True", 
        "num_filter": "64", 
        "num_group": "1", 
        "pad": "(0, 0)", 
        "stride": "(1, 1)"
      }, 
      "inputs": []
    }, 
    {
      "op": "Convolution", 
      "name": "res4_block1_conv_proj_conv2d", 
      "attrs": {
        "kernel": "(1, 1)", 
        "no_bias": "True", 
        "num_filter": "64", 
        "num_group": "1", 
        "pad": "(0, 0)", 
        "stride": "(1, 1)"
      }, 
      "inputs": [[311, 0, 0], [312, 0, 0]]
    }, 
    {
      "op": "null", 
      "name": "res4_block1_conv_proj_batchnorm_gamma", 
      "attrs": {
        "fix_gamma": "False", 
        "momentum": "0.9"
      }, 
      "inputs": []
    }, 
    {
      "op": "null", 
      "name": "res4_block1_conv_proj_batchnorm_beta", 
      "attrs": {
        "fix_gamma": "False", 
        "momentum": "0.9"
      }, 
      "inputs": []
    }, 
    {
      "op": "null", 
      "name": "res4_block1_conv_proj_batchnorm_moving_mean", 
      "attrs": {
        "__init__": "[\"zero\", {}]", 
        "fix_gamma": "False", 
        "momentum": "0.9"
      }, 
      "inputs": []
    }, 
    {
      "op": "null", 
      "name": "res4_block1_conv_proj_batchnorm_moving_var", 
      "attrs": {
        "__init__": "[\"one\", {}]", 
        "fix_gamma": "False", 
        "momentum": "0.9"
      }, 
      "inputs": []
    }, 
    {
      "op": "BatchNorm", 
      "name": "res4_block1_conv_proj_batchnorm", 
      "attrs": {
        "fix_gamma": "False", 
        "momentum": "0.9"
      }, 
      "inputs": [[313, 0, 0], [314, 0, 0], [315, 0, 0], [316, 0, 1], [317, 0, 1]]
    }, 
    {
      "op": "elemwise_add", 
      "name": "_plus9", 
      "inputs": [[318, 0, 0], [293, 0, 0]]
    }, 
    {
      "op": "null", 
      "name": "res4_block2_conv_sep_conv2d_weight", 
      "attrs": {
        "kernel": "(1, 1)", 
        "no_bias": "True", 
        "num_filter": "64", 
        "num_group": "1", 
        "pad": "(0, 0)", 
        "stride": "(1, 1)"
      }, 
      "inputs": []
    }, 
    {
      "op": "Convolution", 
      "name": "res4_block2_conv_sep_conv2d", 
      "attrs": {
        "kernel": "(1, 1)", 
        "no_bias": "True", 
        "num_filter": "64", 
        "num_group": "1", 
        "pad": "(0, 0)", 
        "stride": "(1, 1)"
      }, 
      "inputs": [[319, 0, 0], [320, 0, 0]]
    }, 
    {
      "op": "null", 
      "name": "res4_block2_conv_sep_batchnorm_gamma", 
      "attrs": {
        "fix_gamma": "False", 
        "momentum": "0.9"
      }, 
      "inputs": []
    }, 
    {
      "op": "null", 
      "name": "res4_block2_conv_sep_batchnorm_beta", 
      "attrs": {
        "fix_gamma": "False", 
        "momentum": "0.9"
      }, 
      "inputs": []
    }, 
    {
      "op": "null", 
      "name": "res4_block2_conv_sep_batchnorm_moving_mean", 
      "attrs": {
        "__init__": "[\"zero\", {}]", 
        "fix_gamma": "False", 
        "momentum": "0.9"
      }, 
      "inputs": []
    }, 
    {
      "op": "null", 
      "name": "res4_block2_conv_sep_batchnorm_moving_var", 
      "attrs": {
        "__init__": "[\"one\", {}]", 
        "fix_gamma": "False", 
        "momentum": "0.9"
      }, 
      "inputs": []
    }, 
    {
      "op": "BatchNorm", 
      "name": "res4_block2_conv_sep_batchnorm", 
      "attrs": {
        "fix_gamma": "False", 
        "momentum": "0.9"
      }, 
      "inputs": [[321, 0, 0], [322, 0, 0], [323, 0, 0], [324, 0, 1], [325, 0, 1]]
    }, 
    {
      "op": "null", 
      "name": "res4_block2_conv_sep_relu_gamma", 
      "attrs": {
        "__init__": "[\"Constant\", {\"value\": 0.25}]", 
        "act_type": "prelu"
      }, 
      "inputs": []
    }, 
    {
      "op": "LeakyReLU", 
      "name": "res4_block2_conv_sep_relu", 
      "attrs": {"act_type": "prelu"}, 
      "inputs": [[326, 0, 0], [327, 0, 0]]
    }, 
    {
      "op": "null", 
      "name": "res4_block2_conv_dw_conv2d_weight", 
      "attrs": {
        "kernel": "(3, 3)", 
        "no_bias": "True", 
        "num_filter": "64", 
        "num_group": "64", 
        "pad": "(1, 1)", 
        "stride": "(1, 1)"
      }, 
      "inputs": []
    }, 
    {
      "op": "Convolution", 
      "name": "res4_block2_conv_dw_conv2d", 
      "attrs": {
        "kernel": "(3, 3)", 
        "no_bias": "True", 
        "num_filter": "64", 
        "num_group": "64", 
        "pad": "(1, 1)", 
        "stride": "(1, 1)"
      }, 
      "inputs": [[328, 0, 0], [329, 0, 0]]
    }, 
    {
      "op": "null", 
      "name": "res4_block2_conv_dw_batchnorm_gamma", 
      "attrs": {
        "fix_gamma": "False", 
        "momentum": "0.9"
      }, 
      "inputs": []
    }, 
    {
      "op": "null", 
      "name": "res4_block2_conv_dw_batchnorm_beta", 
      "attrs": {
        "fix_gamma": "False", 
        "momentum": "0.9"
      }, 
      "inputs": []
    }, 
    {
      "op": "null", 
      "name": "res4_block2_conv_dw_batchnorm_moving_mean", 
      "attrs": {
        "__init__": "[\"zero\", {}]", 
        "fix_gamma": "False", 
        "momentum": "0.9"
      }, 
      "inputs": []
    }, 
    {
      "op": "null", 
      "name": "res4_block2_conv_dw_batchnorm_moving_var", 
      "attrs": {
        "__init__": "[\"one\", {}]", 
        "fix_gamma": "False", 
        "momentum": "0.9"
      }, 
      "inputs": []
    }, 
    {
      "op": "BatchNorm", 
      "name": "res4_block2_conv_dw_batchnorm", 
      "attrs": {
        "fix_gamma": "False", 
        "momentum": "0.9"
      }, 
      "inputs": [[330, 0, 0], [331, 0, 0], [332, 0, 0], [333, 0, 1], [334, 0, 1]]
    }, 
    {
      "op": "null", 
      "name": "res4_block2_conv_dw_relu_gamma", 
      "attrs": {
        "__init__": "[\"Constant\", {\"value\": 0.25}]", 
        "act_type": "prelu"
      }, 
      "inputs": []
    }, 
    {
      "op": "LeakyReLU", 
      "name": "res4_block2_conv_dw_relu", 
      "attrs": {"act_type": "prelu"}, 
      "inputs": [[335, 0, 0], [336, 0, 0]]
    }, 
    {
      "op": "null", 
      "name": "res4_block2_conv_proj_conv2d_weight", 
      "attrs": {
        "kernel": "(1, 1)", 
        "no_bias": "True", 
        "num_filter": "64", 
        "num_group": "1", 
        "pad": "(0, 0)", 
        "stride": "(1, 1)"
      }, 
      "inputs": []
    }, 
    {
      "op": "Convolution", 
      "name": "res4_block2_conv_proj_conv2d", 
      "attrs": {
        "kernel": "(1, 1)", 
        "no_bias": "True", 
        "num_filter": "64", 
        "num_group": "1", 
        "pad": "(0, 0)", 
        "stride": "(1, 1)"
      }, 
      "inputs": [[337, 0, 0], [338, 0, 0]]
    }, 
    {
      "op": "null", 
      "name": "res4_block2_conv_proj_batchnorm_gamma", 
      "attrs": {
        "fix_gamma": "False", 
        "momentum": "0.9"
      }, 
      "inputs": []
    }, 
    {
      "op": "null", 
      "name": "res4_block2_conv_proj_batchnorm_beta", 
      "attrs": {
        "fix_gamma": "False", 
        "momentum": "0.9"
      }, 
      "inputs": []
    }, 
    {
      "op": "null", 
      "name": "res4_block2_conv_proj_batchnorm_moving_mean", 
      "attrs": {
        "__init__": "[\"zero\", {}]", 
        "fix_gamma": "False", 
        "momentum": "0.9"
      }, 
      "inputs": []
    }, 
    {
      "op": "null", 
      "name": "res4_block2_conv_proj_batchnorm_moving_var", 
      "attrs": {
        "__init__": "[\"one\", {}]", 
        "fix_gamma": "False", 
        "momentum": "0.9"
      }, 
      "inputs": []
    }, 
    {
      "op": "BatchNorm", 
      "name": "res4_block2_conv_proj_batchnorm", 
      "attrs": {
        "fix_gamma": "False", 
        "momentum": "0.9"
      }, 
      "inputs": [[339, 0, 0], [340, 0, 0], [341, 0, 0], [342, 0, 1], [343, 0, 1]]
    }, 
    {
      "op": "elemwise_add", 
      "name": "_plus10", 
      "inputs": [[344, 0, 0], [319, 0, 0]]
    }, 
    {
      "op": "null", 
      "name": "res4_block3_conv_sep_conv2d_weight", 
      "attrs": {
        "kernel": "(1, 1)", 
        "no_bias": "True", 
        "num_filter": "64", 
        "num_group": "1", 
        "pad": "(0, 0)", 
        "stride": "(1, 1)"
      }, 
      "inputs": []
    }, 
    {
      "op": "Convolution", 
      "name": "res4_block3_conv_sep_conv2d", 
      "attrs": {
        "kernel": "(1, 1)", 
        "no_bias": "True", 
        "num_filter": "64", 
        "num_group": "1", 
        "pad": "(0, 0)", 
        "stride": "(1, 1)"
      }, 
      "inputs": [[345, 0, 0], [346, 0, 0]]
    }, 
    {
      "op": "null", 
      "name": "res4_block3_conv_sep_batchnorm_gamma", 
      "attrs": {
        "fix_gamma": "False", 
        "momentum": "0.9"
      }, 
      "inputs": []
    }, 
    {
      "op": "null", 
      "name": "res4_block3_conv_sep_batchnorm_beta", 
      "attrs": {
        "fix_gamma": "False", 
        "momentum": "0.9"
      }, 
      "inputs": []
    }, 
    {
      "op": "null", 
      "name": "res4_block3_conv_sep_batchnorm_moving_mean", 
      "attrs": {
        "__init__": "[\"zero\", {}]", 
        "fix_gamma": "False", 
        "momentum": "0.9"
      }, 
      "inputs": []
    }, 
    {
      "op": "null", 
      "name": "res4_block3_conv_sep_batchnorm_moving_var", 
      "attrs": {
        "__init__": "[\"one\", {}]", 
        "fix_gamma": "False", 
        "momentum": "0.9"
      }, 
      "inputs": []
    }, 
    {
      "op": "BatchNorm", 
      "name": "res4_block3_conv_sep_batchnorm", 
      "attrs": {
        "fix_gamma": "False", 
        "momentum": "0.9"
      }, 
      "inputs": [[347, 0, 0], [348, 0, 0], [349, 0, 0], [350, 0, 1], [351, 0, 1]]
    }, 
    {
      "op": "null", 
      "name": "res4_block3_conv_sep_relu_gamma", 
      "attrs": {
        "__init__": "[\"Constant\", {\"value\": 0.25}]", 
        "act_type": "prelu"
      }, 
      "inputs": []
    }, 
    {
      "op": "LeakyReLU", 
      "name": "res4_block3_conv_sep_relu", 
      "attrs": {"act_type": "prelu"}, 
      "inputs": [[352, 0, 0], [353, 0, 0]]
    }, 
    {
      "op": "null", 
      "name": "res4_block3_conv_dw_conv2d_weight", 
      "attrs": {
        "kernel": "(3, 3)", 
        "no_bias": "True", 
        "num_filter": "64", 
        "num_group": "64", 
        "pad": "(1, 1)", 
        "stride": "(1, 1)"
      }, 
      "inputs": []
    }, 
    {
      "op": "Convolution", 
      "name": "res4_block3_conv_dw_conv2d", 
      "attrs": {
        "kernel": "(3, 3)", 
        "no_bias": "True", 
        "num_filter": "64", 
        "num_group": "64", 
        "pad": "(1, 1)", 
        "stride": "(1, 1)"
      }, 
      "inputs": [[354, 0, 0], [355, 0, 0]]
    }, 
    {
      "op": "null", 
      "name": "res4_block3_conv_dw_batchnorm_gamma", 
      "attrs": {
        "fix_gamma": "False", 
        "momentum": "0.9"
      }, 
      "inputs": []
    }, 
    {
      "op": "null", 
      "name": "res4_block3_conv_dw_batchnorm_beta", 
      "attrs": {
        "fix_gamma": "False", 
        "momentum": "0.9"
      }, 
      "inputs": []
    }, 
    {
      "op": "null", 
      "name": "res4_block3_conv_dw_batchnorm_moving_mean", 
      "attrs": {
        "__init__": "[\"zero\", {}]", 
        "fix_gamma": "False", 
        "momentum": "0.9"
      }, 
      "inputs": []
    }, 
    {
      "op": "null", 
      "name": "res4_block3_conv_dw_batchnorm_moving_var", 
      "attrs": {
        "__init__": "[\"one\", {}]", 
        "fix_gamma": "False", 
        "momentum": "0.9"
      }, 
      "inputs": []
    }, 
    {
      "op": "BatchNorm", 
      "name": "res4_block3_conv_dw_batchnorm", 
      "attrs": {
        "fix_gamma": "False", 
        "momentum": "0.9"
      }, 
      "inputs": [[356, 0, 0], [357, 0, 0], [358, 0, 0], [359, 0, 1], [360, 0, 1]]
    }, 
    {
      "op": "null", 
      "name": "res4_block3_conv_dw_relu_gamma", 
      "attrs": {
        "__init__": "[\"Constant\", {\"value\": 0.25}]", 
        "act_type": "prelu"
      }, 
      "inputs": []
    }, 
    {
      "op": "LeakyReLU", 
      "name": "res4_block3_conv_dw_relu", 
      "attrs": {"act_type": "prelu"}, 
      "inputs": [[361, 0, 0], [362, 0, 0]]
    }, 
    {
      "op": "null", 
      "name": "res4_block3_conv_proj_conv2d_weight", 
      "attrs": {
        "kernel": "(1, 1)", 
        "no_bias": "True", 
        "num_filter": "64", 
        "num_group": "1", 
        "pad": "(0, 0)", 
        "stride": "(1, 1)"
      }, 
      "inputs": []
    }, 
    {
      "op": "Convolution", 
      "name": "res4_block3_conv_proj_conv2d", 
      "attrs": {
        "kernel": "(1, 1)", 
        "no_bias": "True", 
        "num_filter": "64", 
        "num_group": "1", 
        "pad": "(0, 0)", 
        "stride": "(1, 1)"
      }, 
      "inputs": [[363, 0, 0], [364, 0, 0]]
    }, 
    {
      "op": "null", 
      "name": "res4_block3_conv_proj_batchnorm_gamma", 
      "attrs": {
        "fix_gamma": "False", 
        "momentum": "0.9"
      }, 
      "inputs": []
    }, 
    {
      "op": "null", 
      "name": "res4_block3_conv_proj_batchnorm_beta", 
      "attrs": {
        "fix_gamma": "False", 
        "momentum": "0.9"
      }, 
      "inputs": []
    }, 
    {
      "op": "null", 
      "name": "res4_block3_conv_proj_batchnorm_moving_mean", 
      "attrs": {
        "__init__": "[\"zero\", {}]", 
        "fix_gamma": "False", 
        "momentum": "0.9"
      }, 
      "inputs": []
    }, 
    {
      "op": "null", 
      "name": "res4_block3_conv_proj_batchnorm_moving_var", 
      "attrs": {
        "__init__": "[\"one\", {}]", 
        "fix_gamma": "False", 
        "momentum": "0.9"
      }, 
      "inputs": []
    }, 
    {
      "op": "BatchNorm", 
      "name": "res4_block3_conv_proj_batchnorm", 
      "attrs": {
        "fix_gamma": "False", 
        "momentum": "0.9"
      }, 
      "inputs": [[365, 0, 0], [366, 0, 0], [367, 0, 0], [368, 0, 1], [369, 0, 1]]
    }, 
    {
      "op": "elemwise_add", 
      "name": "_plus11", 
      "inputs": [[370, 0, 0], [345, 0, 0]]
    }, 
    {
      "op": "null", 
      "name": "res4_block4_conv_sep_conv2d_weight", 
      "attrs": {
        "kernel": "(1, 1)", 
        "no_bias": "True", 
        "num_filter": "64", 
        "num_group": "1", 
        "pad": "(0, 0)", 
        "stride": "(1, 1)"
      }, 
      "inputs": []
    }, 
    {
      "op": "Convolution", 
      "name": "res4_block4_conv_sep_conv2d", 
      "attrs": {
        "kernel": "(1, 1)", 
        "no_bias": "True", 
        "num_filter": "64", 
        "num_group": "1", 
        "pad": "(0, 0)", 
        "stride": "(1, 1)"
      }, 
      "inputs": [[371, 0, 0], [372, 0, 0]]
    }, 
    {
      "op": "null", 
      "name": "res4_block4_conv_sep_batchnorm_gamma", 
      "attrs": {
        "fix_gamma": "False", 
        "momentum": "0.9"
      }, 
      "inputs": []
    }, 
    {
      "op": "null", 
      "name": "res4_block4_conv_sep_batchnorm_beta", 
      "attrs": {
        "fix_gamma": "False", 
        "momentum": "0.9"
      }, 
      "inputs": []
    }, 
    {
      "op": "null", 
      "name": "res4_block4_conv_sep_batchnorm_moving_mean", 
      "attrs": {
        "__init__": "[\"zero\", {}]", 
        "fix_gamma": "False", 
        "momentum": "0.9"
      }, 
      "inputs": []
    }, 
    {
      "op": "null", 
      "name": "res4_block4_conv_sep_batchnorm_moving_var", 
      "attrs": {
        "__init__": "[\"one\", {}]", 
        "fix_gamma": "False", 
        "momentum": "0.9"
      }, 
      "inputs": []
    }, 
    {
      "op": "BatchNorm", 
      "name": "res4_block4_conv_sep_batchnorm", 
      "attrs": {
        "fix_gamma": "False", 
        "momentum": "0.9"
      }, 
      "inputs": [[373, 0, 0], [374, 0, 0], [375, 0, 0], [376, 0, 1], [377, 0, 1]]
    }, 
    {
      "op": "null", 
      "name": "res4_block4_conv_sep_relu_gamma", 
      "attrs": {
        "__init__": "[\"Constant\", {\"value\": 0.25}]", 
        "act_type": "prelu"
      }, 
      "inputs": []
    }, 
    {
      "op": "LeakyReLU", 
      "name": "res4_block4_conv_sep_relu", 
      "attrs": {"act_type": "prelu"}, 
      "inputs": [[378, 0, 0], [379, 0, 0]]
    }, 
    {
      "op": "null", 
      "name": "res4_block4_conv_dw_conv2d_weight", 
      "attrs": {
        "kernel": "(3, 3)", 
        "no_bias": "True", 
        "num_filter": "64", 
        "num_group": "64", 
        "pad": "(1, 1)", 
        "stride": "(1, 1)"
      }, 
      "inputs": []
    }, 
    {
      "op": "Convolution", 
      "name": "res4_block4_conv_dw_conv2d", 
      "attrs": {
        "kernel": "(3, 3)", 
        "no_bias": "True", 
        "num_filter": "64", 
        "num_group": "64", 
        "pad": "(1, 1)", 
        "stride": "(1, 1)"
      }, 
      "inputs": [[380, 0, 0], [381, 0, 0]]
    }, 
    {
      "op": "null", 
      "name": "res4_block4_conv_dw_batchnorm_gamma", 
      "attrs": {
        "fix_gamma": "False", 
        "momentum": "0.9"
      }, 
      "inputs": []
    }, 
    {
      "op": "null", 
      "name": "res4_block4_conv_dw_batchnorm_beta", 
      "attrs": {
        "fix_gamma": "False", 
        "momentum": "0.9"
      }, 
      "inputs": []
    }, 
    {
      "op": "null", 
      "name": "res4_block4_conv_dw_batchnorm_moving_mean", 
      "attrs": {
        "__init__": "[\"zero\", {}]", 
        "fix_gamma": "False", 
        "momentum": "0.9"
      }, 
      "inputs": []
    }, 
    {
      "op": "null", 
      "name": "res4_block4_conv_dw_batchnorm_moving_var", 
      "attrs": {
        "__init__": "[\"one\", {}]", 
        "fix_gamma": "False", 
        "momentum": "0.9"
      }, 
      "inputs": []
    }, 
    {
      "op": "BatchNorm", 
      "name": "res4_block4_conv_dw_batchnorm", 
      "attrs": {
        "fix_gamma": "False", 
        "momentum": "0.9"
      }, 
      "inputs": [[382, 0, 0], [383, 0, 0], [384, 0, 0], [385, 0, 1], [386, 0, 1]]
    }, 
    {
      "op": "null", 
      "name": "res4_block4_conv_dw_relu_gamma", 
      "attrs": {
        "__init__": "[\"Constant\", {\"value\": 0.25}]", 
        "act_type": "prelu"
      }, 
      "inputs": []
    }, 
    {
      "op": "LeakyReLU", 
      "name": "res4_block4_conv_dw_relu", 
      "attrs": {"act_type": "prelu"}, 
      "inputs": [[387, 0, 0], [388, 0, 0]]
    }, 
    {
      "op": "null", 
      "name": "res4_block4_conv_proj_conv2d_weight", 
      "attrs": {
        "kernel": "(1, 1)", 
        "no_bias": "True", 
        "num_filter": "64", 
        "num_group": "1", 
        "pad": "(0, 0)", 
        "stride": "(1, 1)"
      }, 
      "inputs": []
    }, 
    {
      "op": "Convolution", 
      "name": "res4_block4_conv_proj_conv2d", 
      "attrs": {
        "kernel": "(1, 1)", 
        "no_bias": "True", 
        "num_filter": "64", 
        "num_group": "1", 
        "pad": "(0, 0)", 
        "stride": "(1, 1)"
      }, 
      "inputs": [[389, 0, 0], [390, 0, 0]]
    }, 
    {
      "op": "null", 
      "name": "res4_block4_conv_proj_batchnorm_gamma", 
      "attrs": {
        "fix_gamma": "False", 
        "momentum": "0.9"
      }, 
      "inputs": []
    }, 
    {
      "op": "null", 
      "name": "res4_block4_conv_proj_batchnorm_beta", 
      "attrs": {
        "fix_gamma": "False", 
        "momentum": "0.9"
      }, 
      "inputs": []
    }, 
    {
      "op": "null", 
      "name": "res4_block4_conv_proj_batchnorm_moving_mean", 
      "attrs": {
        "__init__": "[\"zero\", {}]", 
        "fix_gamma": "False", 
        "momentum": "0.9"
      }, 
      "inputs": []
    }, 
    {
      "op": "null", 
      "name": "res4_block4_conv_proj_batchnorm_moving_var", 
      "attrs": {
        "__init__": "[\"one\", {}]", 
        "fix_gamma": "False", 
        "momentum": "0.9"
      }, 
      "inputs": []
    }, 
    {
      "op": "BatchNorm", 
      "name": "res4_block4_conv_proj_batchnorm", 
      "attrs": {
        "fix_gamma": "False", 
        "momentum": "0.9"
      }, 
      "inputs": [[391, 0, 0], [392, 0, 0], [393, 0, 0], [394, 0, 1], [395, 0, 1]]
    }, 
    {
      "op": "elemwise_add", 
      "name": "_plus12", 
      "inputs": [[396, 0, 0], [371, 0, 0]]
    }, 
    {
      "op": "null", 
      "name": "res4_block5_conv_sep_conv2d_weight", 
      "attrs": {
        "kernel": "(1, 1)", 
        "no_bias": "True", 
        "num_filter": "64", 
        "num_group": "1", 
        "pad": "(0, 0)", 
        "stride": "(1, 1)"
      }, 
      "inputs": []
    }, 
    {
      "op": "Convolution", 
      "name": "res4_block5_conv_sep_conv2d", 
      "attrs": {
        "kernel": "(1, 1)", 
        "no_bias": "True", 
        "num_filter": "64", 
        "num_group": "1", 
        "pad": "(0, 0)", 
        "stride": "(1, 1)"
      }, 
      "inputs": [[397, 0, 0], [398, 0, 0]]
    }, 
    {
      "op": "null", 
      "name": "res4_block5_conv_sep_batchnorm_gamma", 
      "attrs": {
        "fix_gamma": "False", 
        "momentum": "0.9"
      }, 
      "inputs": []
    }, 
    {
      "op": "null", 
      "name": "res4_block5_conv_sep_batchnorm_beta", 
      "attrs": {
        "fix_gamma": "False", 
        "momentum": "0.9"
      }, 
      "inputs": []
    }, 
    {
      "op": "null", 
      "name": "res4_block5_conv_sep_batchnorm_moving_mean", 
      "attrs": {
        "__init__": "[\"zero\", {}]", 
        "fix_gamma": "False", 
        "momentum": "0.9"
      }, 
      "inputs": []
    }, 
    {
      "op": "null", 
      "name": "res4_block5_conv_sep_batchnorm_moving_var", 
      "attrs": {
        "__init__": "[\"one\", {}]", 
        "fix_gamma": "False", 
        "momentum": "0.9"
      }, 
      "inputs": []
    }, 
    {
      "op": "BatchNorm", 
      "name": "res4_block5_conv_sep_batchnorm", 
      "attrs": {
        "fix_gamma": "False", 
        "momentum": "0.9"
      }, 
      "inputs": [[399, 0, 0], [400, 0, 0], [401, 0, 0], [402, 0, 1], [403, 0, 1]]
    }, 
    {
      "op": "null", 
      "name": "res4_block5_conv_sep_relu_gamma", 
      "attrs": {
        "__init__": "[\"Constant\", {\"value\": 0.25}]", 
        "act_type": "prelu"
      }, 
      "inputs": []
    }, 
    {
      "op": "LeakyReLU", 
      "name": "res4_block5_conv_sep_relu", 
      "attrs": {"act_type": "prelu"}, 
      "inputs": [[404, 0, 0], [405, 0, 0]]
    }, 
    {
      "op": "null", 
      "name": "res4_block5_conv_dw_conv2d_weight", 
      "attrs": {
        "kernel": "(3, 3)", 
        "no_bias": "True", 
        "num_filter": "64", 
        "num_group": "64", 
        "pad": "(1, 1)", 
        "stride": "(1, 1)"
      }, 
      "inputs": []
    }, 
    {
      "op": "Convolution", 
      "name": "res4_block5_conv_dw_conv2d", 
      "attrs": {
        "kernel": "(3, 3)", 
        "no_bias": "True", 
        "num_filter": "64", 
        "num_group": "64", 
        "pad": "(1, 1)", 
        "stride": "(1, 1)"
      }, 
      "inputs": [[406, 0, 0], [407, 0, 0]]
    }, 
    {
      "op": "null", 
      "name": "res4_block5_conv_dw_batchnorm_gamma", 
      "attrs": {
        "fix_gamma": "False", 
        "momentum": "0.9"
      }, 
      "inputs": []
    }, 
    {
      "op": "null", 
      "name": "res4_block5_conv_dw_batchnorm_beta", 
      "attrs": {
        "fix_gamma": "False", 
        "momentum": "0.9"
      }, 
      "inputs": []
    }, 
    {
      "op": "null", 
      "name": "res4_block5_conv_dw_batchnorm_moving_mean", 
      "attrs": {
        "__init__": "[\"zero\", {}]", 
        "fix_gamma": "False", 
        "momentum": "0.9"
      }, 
      "inputs": []
    }, 
    {
      "op": "null", 
      "name": "res4_block5_conv_dw_batchnorm_moving_var", 
      "attrs": {
        "__init__": "[\"one\", {}]", 
        "fix_gamma": "False", 
        "momentum": "0.9"
      }, 
      "inputs": []
    }, 
    {
      "op": "BatchNorm", 
      "name": "res4_block5_conv_dw_batchnorm", 
      "attrs": {
        "fix_gamma": "False", 
        "momentum": "0.9"
      }, 
      "inputs": [[408, 0, 0], [409, 0, 0], [410, 0, 0], [411, 0, 1], [412, 0, 1]]
    }, 
    {
      "op": "null", 
      "name": "res4_block5_conv_dw_relu_gamma", 
      "attrs": {
        "__init__": "[\"Constant\", {\"value\": 0.25}]", 
        "act_type": "prelu"
      }, 
      "inputs": []
    }, 
    {
      "op": "LeakyReLU", 
      "name": "res4_block5_conv_dw_relu", 
      "attrs": {"act_type": "prelu"}, 
      "inputs": [[413, 0, 0], [414, 0, 0]]
    }, 
    {
      "op": "null", 
      "name": "res4_block5_conv_proj_conv2d_weight", 
      "attrs": {
        "kernel": "(1, 1)", 
        "no_bias": "True", 
        "num_filter": "64", 
        "num_group": "1", 
        "pad": "(0, 0)", 
        "stride": "(1, 1)"
      }, 
      "inputs": []
    }, 
    {
      "op": "Convolution", 
      "name": "res4_block5_conv_proj_conv2d", 
      "attrs": {
        "kernel": "(1, 1)", 
        "no_bias": "True", 
        "num_filter": "64", 
        "num_group": "1", 
        "pad": "(0, 0)", 
        "stride": "(1, 1)"
      }, 
      "inputs": [[415, 0, 0], [416, 0, 0]]
    }, 
    {
      "op": "null", 
      "name": "res4_block5_conv_proj_batchnorm_gamma", 
      "attrs": {
        "fix_gamma": "False", 
        "momentum": "0.9"
      }, 
      "inputs": []
    }, 
    {
      "op": "null", 
      "name": "res4_block5_conv_proj_batchnorm_beta", 
      "attrs": {
        "fix_gamma": "False", 
        "momentum": "0.9"
      }, 
      "inputs": []
    }, 
    {
      "op": "null", 
      "name": "res4_block5_conv_proj_batchnorm_moving_mean", 
      "attrs": {
        "__init__": "[\"zero\", {}]", 
        "fix_gamma": "False", 
        "momentum": "0.9"
      }, 
      "inputs": []
    }, 
    {
      "op": "null", 
      "name": "res4_block5_conv_proj_batchnorm_moving_var", 
      "attrs": {
        "__init__": "[\"one\", {}]", 
        "fix_gamma": "False", 
        "momentum": "0.9"
      }, 
      "inputs": []
    }, 
    {
      "op": "BatchNorm", 
      "name": "res4_block5_conv_proj_batchnorm", 
      "attrs": {
        "fix_gamma": "False", 
        "momentum": "0.9"
      }, 
      "inputs": [[417, 0, 0], [418, 0, 0], [419, 0, 0], [420, 0, 1], [421, 0, 1]]
    }, 
    {
      "op": "elemwise_add", 
      "name": "_plus13", 
      "inputs": [[422, 0, 0], [397, 0, 0]]
    }, 
    {
      "op": "null", 
      "name": "res4_block6_conv_sep_conv2d_weight", 
      "attrs": {
        "kernel": "(1, 1)", 
        "no_bias": "True", 
        "num_filter": "64", 
        "num_group": "1", 
        "pad": "(0, 0)", 
        "stride": "(1, 1)"
      }, 
      "inputs": []
    }, 
    {
      "op": "Convolution", 
      "name": "res4_block6_conv_sep_conv2d", 
      "attrs": {
        "kernel": "(1, 1)", 
        "no_bias": "True", 
        "num_filter": "64", 
        "num_group": "1", 
        "pad": "(0, 0)", 
        "stride": "(1, 1)"
      }, 
      "inputs": [[423, 0, 0], [424, 0, 0]]
    }, 
    {
      "op": "null", 
      "name": "res4_block6_conv_sep_batchnorm_gamma", 
      "attrs": {
        "fix_gamma": "False", 
        "momentum": "0.9"
      }, 
      "inputs": []
    }, 
    {
      "op": "null", 
      "name": "res4_block6_conv_sep_batchnorm_beta", 
      "attrs": {
        "fix_gamma": "False", 
        "momentum": "0.9"
      }, 
      "inputs": []
    }, 
    {
      "op": "null", 
      "name": "res4_block6_conv_sep_batchnorm_moving_mean", 
      "attrs": {
        "__init__": "[\"zero\", {}]", 
        "fix_gamma": "False", 
        "momentum": "0.9"
      }, 
      "inputs": []
    }, 
    {
      "op": "null", 
      "name": "res4_block6_conv_sep_batchnorm_moving_var", 
      "attrs": {
        "__init__": "[\"one\", {}]", 
        "fix_gamma": "False", 
        "momentum": "0.9"
      }, 
      "inputs": []
    }, 
    {
      "op": "BatchNorm", 
      "name": "res4_block6_conv_sep_batchnorm", 
      "attrs": {
        "fix_gamma": "False", 
        "momentum": "0.9"
      }, 
      "inputs": [[425, 0, 0], [426, 0, 0], [427, 0, 0], [428, 0, 1], [429, 0, 1]]
    }, 
    {
      "op": "null", 
      "name": "res4_block6_conv_sep_relu_gamma", 
      "attrs": {
        "__init__": "[\"Constant\", {\"value\": 0.25}]", 
        "act_type": "prelu"
      }, 
      "inputs": []
    }, 
    {
      "op": "LeakyReLU", 
      "name": "res4_block6_conv_sep_relu", 
      "attrs": {"act_type": "prelu"}, 
      "inputs": [[430, 0, 0], [431, 0, 0]]
    }, 
    {
      "op": "null", 
      "name": "res4_block6_conv_dw_conv2d_weight", 
      "attrs": {
        "kernel": "(3, 3)", 
        "no_bias": "True", 
        "num_filter": "64", 
        "num_group": "64", 
        "pad": "(1, 1)", 
        "stride": "(1, 1)"
      }, 
      "inputs": []
    }, 
    {
      "op": "Convolution", 
      "name": "res4_block6_conv_dw_conv2d", 
      "attrs": {
        "kernel": "(3, 3)", 
        "no_bias": "True", 
        "num_filter": "64", 
        "num_group": "64", 
        "pad": "(1, 1)", 
        "stride": "(1, 1)"
      }, 
      "inputs": [[432, 0, 0], [433, 0, 0]]
    }, 
    {
      "op": "null", 
      "name": "res4_block6_conv_dw_batchnorm_gamma", 
      "attrs": {
        "fix_gamma": "False", 
        "momentum": "0.9"
      }, 
      "inputs": []
    }, 
    {
      "op": "null", 
      "name": "res4_block6_conv_dw_batchnorm_beta", 
      "attrs": {
        "fix_gamma": "False", 
        "momentum": "0.9"
      }, 
      "inputs": []
    }, 
    {
      "op": "null", 
      "name": "res4_block6_conv_dw_batchnorm_moving_mean", 
      "attrs": {
        "__init__": "[\"zero\", {}]", 
        "fix_gamma": "False", 
        "momentum": "0.9"
      }, 
      "inputs": []
    }, 
    {
      "op": "null", 
      "name": "res4_block6_conv_dw_batchnorm_moving_var", 
      "attrs": {
        "__init__": "[\"one\", {}]", 
        "fix_gamma": "False", 
        "momentum": "0.9"
      }, 
      "inputs": []
    }, 
    {
      "op": "BatchNorm", 
      "name": "res4_block6_conv_dw_batchnorm", 
      "attrs": {
        "fix_gamma": "False", 
        "momentum": "0.9"
      }, 
      "inputs": [[434, 0, 0], [435, 0, 0], [436, 0, 0], [437, 0, 1], [438, 0, 1]]
    }, 
    {
      "op": "null", 
      "name": "res4_block6_conv_dw_relu_gamma", 
      "attrs": {
        "__init__": "[\"Constant\", {\"value\": 0.25}]", 
        "act_type": "prelu"
      }, 
      "inputs": []
    }, 
    {
      "op": "LeakyReLU", 
      "name": "res4_block6_conv_dw_relu", 
      "attrs": {"act_type": "prelu"}, 
      "inputs": [[439, 0, 0], [440, 0, 0]]
    }, 
    {
      "op": "null", 
      "name": "res4_block6_conv_proj_conv2d_weight", 
      "attrs": {
        "kernel": "(1, 1)", 
        "no_bias": "True", 
        "num_filter": "64", 
        "num_group": "1", 
        "pad": "(0, 0)", 
        "stride": "(1, 1)"
      }, 
      "inputs": []
    }, 
    {
      "op": "Convolution", 
      "name": "res4_block6_conv_proj_conv2d", 
      "attrs": {
        "kernel": "(1, 1)", 
        "no_bias": "True", 
        "num_filter": "64", 
        "num_group": "1", 
        "pad": "(0, 0)", 
        "stride": "(1, 1)"
      }, 
      "inputs": [[441, 0, 0], [442, 0, 0]]
    }, 
    {
      "op": "null", 
      "name": "res4_block6_conv_proj_batchnorm_gamma", 
      "attrs": {
        "fix_gamma": "False", 
        "momentum": "0.9"
      }, 
      "inputs": []
    }, 
    {
      "op": "null", 
      "name": "res4_block6_conv_proj_batchnorm_beta", 
      "attrs": {
        "fix_gamma": "False", 
        "momentum": "0.9"
      }, 
      "inputs": []
    }, 
    {
      "op": "null", 
      "name": "res4_block6_conv_proj_batchnorm_moving_mean", 
      "attrs": {
        "__init__": "[\"zero\", {}]", 
        "fix_gamma": "False", 
        "momentum": "0.9"
      }, 
      "inputs": []
    }, 
    {
      "op": "null", 
      "name": "res4_block6_conv_proj_batchnorm_moving_var", 
      "attrs": {
        "__init__": "[\"one\", {}]", 
        "fix_gamma": "False", 
        "momentum": "0.9"
      }, 
      "inputs": []
    }, 
    {
      "op": "BatchNorm", 
      "name": "res4_block6_conv_proj_batchnorm", 
      "attrs": {
        "fix_gamma": "False", 
        "momentum": "0.9"
      }, 
      "inputs": [[443, 0, 0], [444, 0, 0], [445, 0, 0], [446, 0, 1], [447, 0, 1]]
    }, 
    {
      "op": "elemwise_add", 
      "name": "_plus14", 
      "inputs": [[448, 0, 0], [423, 0, 0]]
    }, 
    {
      "op": "null", 
      "name": "res4_block7_conv_sep_conv2d_weight", 
      "attrs": {
        "kernel": "(1, 1)", 
        "no_bias": "True", 
        "num_filter": "64", 
        "num_group": "1", 
        "pad": "(0, 0)", 
        "stride": "(1, 1)"
      }, 
      "inputs": []
    }, 
    {
      "op": "Convolution", 
      "name": "res4_block7_conv_sep_conv2d", 
      "attrs": {
        "kernel": "(1, 1)", 
        "no_bias": "True", 
        "num_filter": "64", 
        "num_group": "1", 
        "pad": "(0, 0)", 
        "stride": "(1, 1)"
      }, 
      "inputs": [[449, 0, 0], [450, 0, 0]]
    }, 
    {
      "op": "null", 
      "name": "res4_block7_conv_sep_batchnorm_gamma", 
      "attrs": {
        "fix_gamma": "False", 
        "momentum": "0.9"
      }, 
      "inputs": []
    }, 
    {
      "op": "null", 
      "name": "res4_block7_conv_sep_batchnorm_beta", 
      "attrs": {
        "fix_gamma": "False", 
        "momentum": "0.9"
      }, 
      "inputs": []
    }, 
    {
      "op": "null", 
      "name": "res4_block7_conv_sep_batchnorm_moving_mean", 
      "attrs": {
        "__init__": "[\"zero\", {}]", 
        "fix_gamma": "False", 
        "momentum": "0.9"
      }, 
      "inputs": []
    }, 
    {
      "op": "null", 
      "name": "res4_block7_conv_sep_batchnorm_moving_var", 
      "attrs": {
        "__init__": "[\"one\", {}]", 
        "fix_gamma": "False", 
        "momentum": "0.9"
      }, 
      "inputs": []
    }, 
    {
      "op": "BatchNorm", 
      "name": "res4_block7_conv_sep_batchnorm", 
      "attrs": {
        "fix_gamma": "False", 
        "momentum": "0.9"
      }, 
      "inputs": [[451, 0, 0], [452, 0, 0], [453, 0, 0], [454, 0, 1], [455, 0, 1]]
    }, 
    {
      "op": "null", 
      "name": "res4_block7_conv_sep_relu_gamma", 
      "attrs": {
        "__init__": "[\"Constant\", {\"value\": 0.25}]", 
        "act_type": "prelu"
      }, 
      "inputs": []
    }, 
    {
      "op": "LeakyReLU", 
      "name": "res4_block7_conv_sep_relu", 
      "attrs": {"act_type": "prelu"}, 
      "inputs": [[456, 0, 0], [457, 0, 0]]
    }, 
    {
      "op": "null", 
      "name": "res4_block7_conv_dw_conv2d_weight", 
      "attrs": {
        "kernel": "(3, 3)", 
        "no_bias": "True", 
        "num_filter": "64", 
        "num_group": "64", 
        "pad": "(1, 1)", 
        "stride": "(1, 1)"
      }, 
      "inputs": []
    }, 
    {
      "op": "Convolution", 
      "name": "res4_block7_conv_dw_conv2d", 
      "attrs": {
        "kernel": "(3, 3)", 
        "no_bias": "True", 
        "num_filter": "64", 
        "num_group": "64", 
        "pad": "(1, 1)", 
        "stride": "(1, 1)"
      }, 
      "inputs": [[458, 0, 0], [459, 0, 0]]
    }, 
    {
      "op": "null", 
      "name": "res4_block7_conv_dw_batchnorm_gamma", 
      "attrs": {
        "fix_gamma": "False", 
        "momentum": "0.9"
      }, 
      "inputs": []
    }, 
    {
      "op": "null", 
      "name": "res4_block7_conv_dw_batchnorm_beta", 
      "attrs": {
        "fix_gamma": "False", 
        "momentum": "0.9"
      }, 
      "inputs": []
    }, 
    {
      "op": "null", 
      "name": "res4_block7_conv_dw_batchnorm_moving_mean", 
      "attrs": {
        "__init__": "[\"zero\", {}]", 
        "fix_gamma": "False", 
        "momentum": "0.9"
      }, 
      "inputs": []
    }, 
    {
      "op": "null", 
      "name": "res4_block7_conv_dw_batchnorm_moving_var", 
      "attrs": {
        "__init__": "[\"one\", {}]", 
        "fix_gamma": "False", 
        "momentum": "0.9"
      }, 
      "inputs": []
    }, 
    {
      "op": "BatchNorm", 
      "name": "res4_block7_conv_dw_batchnorm", 
      "attrs": {
        "fix_gamma": "False", 
        "momentum": "0.9"
      }, 
      "inputs": [[460, 0, 0], [461, 0, 0], [462, 0, 0], [463, 0, 1], [464, 0, 1]]
    }, 
    {
      "op": "null", 
      "name": "res4_block7_conv_dw_relu_gamma", 
      "attrs": {
        "__init__": "[\"Constant\", {\"value\": 0.25}]", 
        "act_type": "prelu"
      }, 
      "inputs": []
    }, 
    {
      "op": "LeakyReLU", 
      "name": "res4_block7_conv_dw_relu", 
      "attrs": {"act_type": "prelu"}, 
      "inputs": [[465, 0, 0], [466, 0, 0]]
    }, 
    {
      "op": "null", 
      "name": "res4_block7_conv_proj_conv2d_weight", 
      "attrs": {
        "kernel": "(1, 1)", 
        "no_bias": "True", 
        "num_filter": "64", 
        "num_group": "1", 
        "pad": "(0, 0)", 
        "stride": "(1, 1)"
      }, 
      "inputs": []
    }, 
    {
      "op": "Convolution", 
      "name": "res4_block7_conv_proj_conv2d", 
      "attrs": {
        "kernel": "(1, 1)", 
        "no_bias": "True", 
        "num_filter": "64", 
        "num_group": "1", 
        "pad": "(0, 0)", 
        "stride": "(1, 1)"
      }, 
      "inputs": [[467, 0, 0], [468, 0, 0]]
    }, 
    {
      "op": "null", 
      "name": "res4_block7_conv_proj_batchnorm_gamma", 
      "attrs": {
        "fix_gamma": "False", 
        "momentum": "0.9"
      }, 
      "inputs": []
    }, 
    {
      "op": "null", 
      "name": "res4_block7_conv_proj_batchnorm_beta", 
      "attrs": {
        "fix_gamma": "False", 
        "momentum": "0.9"
      }, 
      "inputs": []
    }, 
    {
      "op": "null", 
      "name": "res4_block7_conv_proj_batchnorm_moving_mean", 
      "attrs": {
        "__init__": "[\"zero\", {}]", 
        "fix_gamma": "False", 
        "momentum": "0.9"
      }, 
      "inputs": []
    }, 
    {
      "op": "null", 
      "name": "res4_block7_conv_proj_batchnorm_moving_var", 
      "attrs": {
        "__init__": "[\"one\", {}]", 
        "fix_gamma": "False", 
        "momentum": "0.9"
      }, 
      "inputs": []
    }, 
    {
      "op": "BatchNorm", 
      "name": "res4_block7_conv_proj_batchnorm", 
      "attrs": {
        "fix_gamma": "False", 
        "momentum": "0.9"
      }, 
      "inputs": [[469, 0, 0], [470, 0, 0], [471, 0, 0], [472, 0, 1], [473, 0, 1]]
    }, 
    {
      "op": "elemwise_add", 
      "name": "_plus15", 
      "inputs": [[474, 0, 0], [449, 0, 0]]
    }, 
    {
      "op": "null", 
      "name": "res4_block8_conv_sep_conv2d_weight", 
      "attrs": {
        "kernel": "(1, 1)", 
        "no_bias": "True", 
        "num_filter": "64", 
        "num_group": "1", 
        "pad": "(0, 0)", 
        "stride": "(1, 1)"
      }, 
      "inputs": []
    }, 
    {
      "op": "Convolution", 
      "name": "res4_block8_conv_sep_conv2d", 
      "attrs": {
        "kernel": "(1, 1)", 
        "no_bias": "True", 
        "num_filter": "64", 
        "num_group": "1", 
        "pad": "(0, 0)", 
        "stride": "(1, 1)"
      }, 
      "inputs": [[475, 0, 0], [476, 0, 0]]
    }, 
    {
      "op": "null", 
      "name": "res4_block8_conv_sep_batchnorm_gamma", 
      "attrs": {
        "fix_gamma": "False", 
        "momentum": "0.9"
      }, 
      "inputs": []
    }, 
    {
      "op": "null", 
      "name": "res4_block8_conv_sep_batchnorm_beta", 
      "attrs": {
        "fix_gamma": "False", 
        "momentum": "0.9"
      }, 
      "inputs": []
    }, 
    {
      "op": "null", 
      "name": "res4_block8_conv_sep_batchnorm_moving_mean", 
      "attrs": {
        "__init__": "[\"zero\", {}]", 
        "fix_gamma": "False", 
        "momentum": "0.9"
      }, 
      "inputs": []
    }, 
    {
      "op": "null", 
      "name": "res4_block8_conv_sep_batchnorm_moving_var", 
      "attrs": {
        "__init__": "[\"one\", {}]", 
        "fix_gamma": "False", 
        "momentum": "0.9"
      }, 
      "inputs": []
    }, 
    {
      "op": "BatchNorm", 
      "name": "res4_block8_conv_sep_batchnorm", 
      "attrs": {
        "fix_gamma": "False", 
        "momentum": "0.9"
      }, 
      "inputs": [[477, 0, 0], [478, 0, 0], [479, 0, 0], [480, 0, 1], [481, 0, 1]]
    }, 
    {
      "op": "null", 
      "name": "res4_block8_conv_sep_relu_gamma", 
      "attrs": {
        "__init__": "[\"Constant\", {\"value\": 0.25}]", 
        "act_type": "prelu"
      }, 
      "inputs": []
    }, 
    {
      "op": "LeakyReLU", 
      "name": "res4_block8_conv_sep_relu", 
      "attrs": {"act_type": "prelu"}, 
      "inputs": [[482, 0, 0], [483, 0, 0]]
    }, 
    {
      "op": "null", 
      "name": "res4_block8_conv_dw_conv2d_weight", 
      "attrs": {
        "kernel": "(3, 3)", 
        "no_bias": "True", 
        "num_filter": "64", 
        "num_group": "64", 
        "pad": "(1, 1)", 
        "stride": "(1, 1)"
      }, 
      "inputs": []
    }, 
    {
      "op": "Convolution", 
      "name": "res4_block8_conv_dw_conv2d", 
      "attrs": {
        "kernel": "(3, 3)", 
        "no_bias": "True", 
        "num_filter": "64", 
        "num_group": "64", 
        "pad": "(1, 1)", 
        "stride": "(1, 1)"
      }, 
      "inputs": [[484, 0, 0], [485, 0, 0]]
    }, 
    {
      "op": "null", 
      "name": "res4_block8_conv_dw_batchnorm_gamma", 
      "attrs": {
        "fix_gamma": "False", 
        "momentum": "0.9"
      }, 
      "inputs": []
    }, 
    {
      "op": "null", 
      "name": "res4_block8_conv_dw_batchnorm_beta", 
      "attrs": {
        "fix_gamma": "False", 
        "momentum": "0.9"
      }, 
      "inputs": []
    }, 
    {
      "op": "null", 
      "name": "res4_block8_conv_dw_batchnorm_moving_mean", 
      "attrs": {
        "__init__": "[\"zero\", {}]", 
        "fix_gamma": "False", 
        "momentum": "0.9"
      }, 
      "inputs": []
    }, 
    {
      "op": "null", 
      "name": "res4_block8_conv_dw_batchnorm_moving_var", 
      "attrs": {
        "__init__": "[\"one\", {}]", 
        "fix_gamma": "False", 
        "momentum": "0.9"
      }, 
      "inputs": []
    }, 
    {
      "op": "BatchNorm", 
      "name": "res4_block8_conv_dw_batchnorm", 
      "attrs": {
        "fix_gamma": "False", 
        "momentum": "0.9"
      }, 
      "inputs": [[486, 0, 0], [487, 0, 0], [488, 0, 0], [489, 0, 1], [490, 0, 1]]
    }, 
    {
      "op": "null", 
      "name": "res4_block8_conv_dw_relu_gamma", 
      "attrs": {
        "__init__": "[\"Constant\", {\"value\": 0.25}]", 
        "act_type": "prelu"
      }, 
      "inputs": []
    }, 
    {
      "op": "LeakyReLU", 
      "name": "res4_block8_conv_dw_relu", 
      "attrs": {"act_type": "prelu"}, 
      "inputs": [[491, 0, 0], [492, 0, 0]]
    }, 
    {
      "op": "null", 
      "name": "res4_block8_conv_proj_conv2d_weight", 
      "attrs": {
        "kernel": "(1, 1)", 
        "no_bias": "True", 
        "num_filter": "64", 
        "num_group": "1", 
        "pad": "(0, 0)", 
        "stride": "(1, 1)"
      }, 
      "inputs": []
    }, 
    {
      "op": "Convolution", 
      "name": "res4_block8_conv_proj_conv2d", 
      "attrs": {
        "kernel": "(1, 1)", 
        "no_bias": "True", 
        "num_filter": "64", 
        "num_group": "1", 
        "pad": "(0, 0)", 
        "stride": "(1, 1)"
      }, 
      "inputs": [[493, 0, 0], [494, 0, 0]]
    }, 
    {
      "op": "null", 
      "name": "res4_block8_conv_proj_batchnorm_gamma", 
      "attrs": {
        "fix_gamma": "False", 
        "momentum": "0.9"
      }, 
      "inputs": []
    }, 
    {
      "op": "null", 
      "name": "res4_block8_conv_proj_batchnorm_beta", 
      "attrs": {
        "fix_gamma": "False", 
        "momentum": "0.9"
      }, 
      "inputs": []
    }, 
    {
      "op": "null", 
      "name": "res4_block8_conv_proj_batchnorm_moving_mean", 
      "attrs": {
        "__init__": "[\"zero\", {}]", 
        "fix_gamma": "False", 
        "momentum": "0.9"
      }, 
      "inputs": []
    }, 
    {
      "op": "null", 
      "name": "res4_block8_conv_proj_batchnorm_moving_var", 
      "attrs": {
        "__init__": "[\"one\", {}]", 
        "fix_gamma": "False", 
        "momentum": "0.9"
      }, 
      "inputs": []
    }, 
    {
      "op": "BatchNorm", 
      "name": "res4_block8_conv_proj_batchnorm", 
      "attrs": {
        "fix_gamma": "False", 
        "momentum": "0.9"
      }, 
      "inputs": [[495, 0, 0], [496, 0, 0], [497, 0, 0], [498, 0, 1], [499, 0, 1]]
    }, 
    {
      "op": "elemwise_add", 
      "name": "_plus16", 
      "inputs": [[500, 0, 0], [475, 0, 0]]
    }, 
    {
      "op": "null", 
      "name": "res4_block9_conv_sep_conv2d_weight", 
      "attrs": {
        "kernel": "(1, 1)", 
        "no_bias": "True", 
        "num_filter": "64", 
        "num_group": "1", 
        "pad": "(0, 0)", 
        "stride": "(1, 1)"
      }, 
      "inputs": []
    }, 
    {
      "op": "Convolution", 
      "name": "res4_block9_conv_sep_conv2d", 
      "attrs": {
        "kernel": "(1, 1)", 
        "no_bias": "True", 
        "num_filter": "64", 
        "num_group": "1", 
        "pad": "(0, 0)", 
        "stride": "(1, 1)"
      }, 
      "inputs": [[501, 0, 0], [502, 0, 0]]
    }, 
    {
      "op": "null", 
      "name": "res4_block9_conv_sep_batchnorm_gamma", 
      "attrs": {
        "fix_gamma": "False", 
        "momentum": "0.9"
      }, 
      "inputs": []
    }, 
    {
      "op": "null", 
      "name": "res4_block9_conv_sep_batchnorm_beta", 
      "attrs": {
        "fix_gamma": "False", 
        "momentum": "0.9"
      }, 
      "inputs": []
    }, 
    {
      "op": "null", 
      "name": "res4_block9_conv_sep_batchnorm_moving_mean", 
      "attrs": {
        "__init__": "[\"zero\", {}]", 
        "fix_gamma": "False", 
        "momentum": "0.9"
      }, 
      "inputs": []
    }, 
    {
      "op": "null", 
      "name": "res4_block9_conv_sep_batchnorm_moving_var", 
      "attrs": {
        "__init__": "[\"one\", {}]", 
        "fix_gamma": "False", 
        "momentum": "0.9"
      }, 
      "inputs": []
    }, 
    {
      "op": "BatchNorm", 
      "name": "res4_block9_conv_sep_batchnorm", 
      "attrs": {
        "fix_gamma": "False", 
        "momentum": "0.9"
      }, 
      "inputs": [[503, 0, 0], [504, 0, 0], [505, 0, 0], [506, 0, 1], [507, 0, 1]]
    }, 
    {
      "op": "null", 
      "name": "res4_block9_conv_sep_relu_gamma", 
      "attrs": {
        "__init__": "[\"Constant\", {\"value\": 0.25}]", 
        "act_type": "prelu"
      }, 
      "inputs": []
    }, 
    {
      "op": "LeakyReLU", 
      "name": "res4_block9_conv_sep_relu", 
      "attrs": {"act_type": "prelu"}, 
      "inputs": [[508, 0, 0], [509, 0, 0]]
    }, 
    {
      "op": "null", 
      "name": "res4_block9_conv_dw_conv2d_weight", 
      "attrs": {
        "kernel": "(3, 3)", 
        "no_bias": "True", 
        "num_filter": "64", 
        "num_group": "64", 
        "pad": "(1, 1)", 
        "stride": "(1, 1)"
      }, 
      "inputs": []
    }, 
    {
      "op": "Convolution", 
      "name": "res4_block9_conv_dw_conv2d", 
      "attrs": {
        "kernel": "(3, 3)", 
        "no_bias": "True", 
        "num_filter": "64", 
        "num_group": "64", 
        "pad": "(1, 1)", 
        "stride": "(1, 1)"
      }, 
      "inputs": [[510, 0, 0], [511, 0, 0]]
    }, 
    {
      "op": "null", 
      "name": "res4_block9_conv_dw_batchnorm_gamma", 
      "attrs": {
        "fix_gamma": "False", 
        "momentum": "0.9"
      }, 
      "inputs": []
    }, 
    {
      "op": "null", 
      "name": "res4_block9_conv_dw_batchnorm_beta", 
      "attrs": {
        "fix_gamma": "False", 
        "momentum": "0.9"
      }, 
      "inputs": []
    }, 
    {
      "op": "null", 
      "name": "res4_block9_conv_dw_batchnorm_moving_mean", 
      "attrs": {
        "__init__": "[\"zero\", {}]", 
        "fix_gamma": "False", 
        "momentum": "0.9"
      }, 
      "inputs": []
    }, 
    {
      "op": "null", 
      "name": "res4_block9_conv_dw_batchnorm_moving_var", 
      "attrs": {
        "__init__": "[\"one\", {}]", 
        "fix_gamma": "False", 
        "momentum": "0.9"
      }, 
      "inputs": []
    }, 
    {
      "op": "BatchNorm", 
      "name": "res4_block9_conv_dw_batchnorm", 
      "attrs": {
        "fix_gamma": "False", 
        "momentum": "0.9"
      }, 
      "inputs": [[512, 0, 0], [513, 0, 0], [514, 0, 0], [515, 0, 1], [516, 0, 1]]
    }, 
    {
      "op": "null", 
      "name": "res4_block9_conv_dw_relu_gamma", 
      "attrs": {
        "__init__": "[\"Constant\", {\"value\": 0.25}]", 
        "act_type": "prelu"
      }, 
      "inputs": []
    }, 
    {
      "op": "LeakyReLU", 
      "name": "res4_block9_conv_dw_relu", 
      "attrs": {"act_type": "prelu"}, 
      "inputs": [[517, 0, 0], [518, 0, 0]]
    }, 
    {
      "op": "null", 
      "name": "res4_block9_conv_proj_conv2d_weight", 
      "attrs": {
        "kernel": "(1, 1)", 
        "no_bias": "True", 
        "num_filter": "64", 
        "num_group": "1", 
        "pad": "(0, 0)", 
        "stride": "(1, 1)"
      }, 
      "inputs": []
    }, 
    {
      "op": "Convolution", 
      "name": "res4_block9_conv_proj_conv2d", 
      "attrs": {
        "kernel": "(1, 1)", 
        "no_bias": "True", 
        "num_filter": "64", 
        "num_group": "1", 
        "pad": "(0, 0)", 
        "stride": "(1, 1)"
      }, 
      "inputs": [[519, 0, 0], [520, 0, 0]]
    }, 
    {
      "op": "null", 
      "name": "res4_block9_conv_proj_batchnorm_gamma", 
      "attrs": {
        "fix_gamma": "False", 
        "momentum": "0.9"
      }, 
      "inputs": []
    }, 
    {
      "op": "null", 
      "name": "res4_block9_conv_proj_batchnorm_beta", 
      "attrs": {
        "fix_gamma": "False", 
        "momentum": "0.9"
      }, 
      "inputs": []
    }, 
    {
      "op": "null", 
      "name": "res4_block9_conv_proj_batchnorm_moving_mean", 
      "attrs": {
        "__init__": "[\"zero\", {}]", 
        "fix_gamma": "False", 
        "momentum": "0.9"
      }, 
      "inputs": []
    }, 
    {
      "op": "null", 
      "name": "res4_block9_conv_proj_batchnorm_moving_var", 
      "attrs": {
        "__init__": "[\"one\", {}]", 
        "fix_gamma": "False", 
        "momentum": "0.9"
      }, 
      "inputs": []
    }, 
    {
      "op": "BatchNorm", 
      "name": "res4_block9_conv_proj_batchnorm", 
      "attrs": {
        "fix_gamma": "False", 
        "momentum": "0.9"
      }, 
      "inputs": [[521, 0, 0], [522, 0, 0], [523, 0, 0], [524, 0, 1], [525, 0, 1]]
    }, 
    {
      "op": "elemwise_add", 
      "name": "_plus17", 
      "inputs": [[526, 0, 0], [501, 0, 0]]
    }, 
    {
      "op": "null", 
      "name": "dconv45_conv_sep_conv2d_weight", 
      "attrs": {
        "kernel": "(1, 1)", 
        "no_bias": "True", 
        "num_filter": "128", 
        "num_group": "1", 
        "pad": "(0, 0)", 
        "stride": "(1, 1)"
      }, 
      "inputs": []
    }, 
    {
      "op": "Convolution", 
      "name": "dconv45_conv_sep_conv2d", 
      "attrs": {
        "kernel": "(1, 1)", 
        "no_bias": "True", 
        "num_filter": "128", 
        "num_group": "1", 
        "pad": "(0, 0)", 
        "stride": "(1, 1)"
      }, 
      "inputs": [[527, 0, 0], [528, 0, 0]]
    }, 
    {
      "op": "null", 
      "name": "dconv45_conv_sep_batchnorm_gamma", 
      "attrs": {
        "fix_gamma": "False", 
        "momentum": "0.9"
      }, 
      "inputs": []
    }, 
    {
      "op": "null", 
      "name": "dconv45_conv_sep_batchnorm_beta", 
      "attrs": {
        "fix_gamma": "False", 
        "momentum": "0.9"
      }, 
      "inputs": []
    }, 
    {
      "op": "null", 
      "name": "dconv45_conv_sep_batchnorm_moving_mean", 
      "attrs": {
        "__init__": "[\"zero\", {}]", 
        "fix_gamma": "False", 
        "momentum": "0.9"
      }, 
      "inputs": []
    }, 
    {
      "op": "null", 
      "name": "dconv45_conv_sep_batchnorm_moving_var", 
      "attrs": {
        "__init__": "[\"one\", {}]", 
        "fix_gamma": "False", 
        "momentum": "0.9"
      }, 
      "inputs": []
    }, 
    {
      "op": "BatchNorm", 
      "name": "dconv45_conv_sep_batchnorm", 
      "attrs": {
        "fix_gamma": "False", 
        "momentum": "0.9"
      }, 
      "inputs": [[529, 0, 0], [530, 0, 0], [531, 0, 0], [532, 0, 1], [533, 0, 1]]
    }, 
    {
      "op": "null", 
      "name": "dconv45_conv_sep_relu_gamma", 
      "attrs": {
        "__init__": "[\"Constant\", {\"value\": 0.25}]", 
        "act_type": "prelu"
      }, 
      "inputs": []
    }, 
    {
      "op": "LeakyReLU", 
      "name": "dconv45_conv_sep_relu", 
      "attrs": {"act_type": "prelu"}, 
      "inputs": [[534, 0, 0], [535, 0, 0]]
    }, 
    {
      "op": "null", 
      "name": "dconv45_conv_dw_conv2d_weight", 
      "attrs": {
        "kernel": "(3, 3)", 
        "no_bias": "True", 
        "num_filter": "128", 
        "num_group": "128", 
        "pad": "(1, 1)", 
        "stride": "(2, 2)"
      }, 
      "inputs": []
    }, 
    {
      "op": "Convolution", 
      "name": "dconv45_conv_dw_conv2d", 
      "attrs": {
        "kernel": "(3, 3)", 
        "no_bias": "True", 
        "num_filter": "128", 
        "num_group": "128", 
        "pad": "(1, 1)", 
        "stride": "(2, 2)"
      }, 
      "inputs": [[536, 0, 0], [537, 0, 0]]
    }, 
    {
      "op": "null", 
      "name": "dconv45_conv_dw_batchnorm_gamma", 
      "attrs": {
        "fix_gamma": "False", 
        "momentum": "0.9"
      }, 
      "inputs": []
    }, 
    {
      "op": "null", 
      "name": "dconv45_conv_dw_batchnorm_beta", 
      "attrs": {
        "fix_gamma": "False", 
        "momentum": "0.9"
      }, 
      "inputs": []
    }, 
    {
      "op": "null", 
      "name": "dconv45_conv_dw_batchnorm_moving_mean", 
      "attrs": {
        "__init__": "[\"zero\", {}]", 
        "fix_gamma": "False", 
        "momentum": "0.9"
      }, 
      "inputs": []
    }, 
    {
      "op": "null", 
      "name": "dconv45_conv_dw_batchnorm_moving_var", 
      "attrs": {
        "__init__": "[\"one\", {}]", 
        "fix_gamma": "False", 
        "momentum": "0.9"
      }, 
      "inputs": []
    }, 
    {
      "op": "BatchNorm", 
      "name": "dconv45_conv_dw_batchnorm", 
      "attrs": {
        "fix_gamma": "False", 
        "momentum": "0.9"
      }, 
      "inputs": [[538, 0, 0], [539, 0, 0], [540, 0, 0], [541, 0, 1], [542, 0, 1]]
    }, 
    {
      "op": "null", 
      "name": "dconv45_conv_dw_relu_gamma", 
      "attrs": {
        "__init__": "[\"Constant\", {\"value\": 0.25}]", 
        "act_type": "prelu"
      }, 
      "inputs": []
    }, 
    {
      "op": "LeakyReLU", 
      "name": "dconv45_conv_dw_relu", 
      "attrs": {"act_type": "prelu"}, 
      "inputs": [[543, 0, 0], [544, 0, 0]]
    }, 
    {
      "op": "null", 
      "name": "dconv45_conv_proj_conv2d_weight", 
      "attrs": {
        "kernel": "(1, 1)", 
        "no_bias": "True", 
        "num_filter": "128", 
        "num_group": "1", 
        "pad": "(0, 0)", 
        "stride": "(1, 1)"
      }, 
      "inputs": []
    }, 
    {
      "op": "Convolution", 
      "name": "dconv45_conv_proj_conv2d", 
      "attrs": {
        "kernel": "(1, 1)", 
        "no_bias": "True", 
        "num_filter": "128", 
        "num_group": "1", 
        "pad": "(0, 0)", 
        "stride": "(1, 1)"
      }, 
      "inputs": [[545, 0, 0], [546, 0, 0]]
    }, 
    {
      "op": "null", 
      "name": "dconv45_conv_proj_batchnorm_gamma", 
      "attrs": {
        "fix_gamma": "False", 
        "momentum": "0.9"
      }, 
      "inputs": []
    }, 
    {
      "op": "null", 
      "name": "dconv45_conv_proj_batchnorm_beta", 
      "attrs": {
        "fix_gamma": "False", 
        "momentum": "0.9"
      }, 
      "inputs": []
    }, 
    {
      "op": "null", 
      "name": "dconv45_conv_proj_batchnorm_moving_mean", 
      "attrs": {
        "__init__": "[\"zero\", {}]", 
        "fix_gamma": "False", 
        "momentum": "0.9"
      }, 
      "inputs": []
    }, 
    {
      "op": "null", 
      "name": "dconv45_conv_proj_batchnorm_moving_var", 
      "attrs": {
        "__init__": "[\"one\", {}]", 
        "fix_gamma": "False", 
        "momentum": "0.9"
      }, 
      "inputs": []
    }, 
    {
      "op": "BatchNorm", 
      "name": "dconv45_conv_proj_batchnorm", 
      "attrs": {
        "fix_gamma": "False", 
        "momentum": "0.9"
      }, 
      "inputs": [[547, 0, 0], [548, 0, 0], [549, 0, 0], [550, 0, 1], [551, 0, 1]]
    }, 
    {
      "op": "null", 
      "name": "res5_block0_conv_sep_conv2d_weight", 
      "attrs": {
        "kernel": "(1, 1)", 
        "no_bias": "True", 
        "num_filter": "128", 
        "num_group": "1", 
        "pad": "(0, 0)", 
        "stride": "(1, 1)"
      }, 
      "inputs": []
    }, 
    {
      "op": "Convolution", 
      "name": "res5_block0_conv_sep_conv2d", 
      "attrs": {
        "kernel": "(1, 1)", 
        "no_bias": "True", 
        "num_filter": "128", 
        "num_group": "1", 
        "pad": "(0, 0)", 
        "stride": "(1, 1)"
      }, 
      "inputs": [[552, 0, 0], [553, 0, 0]]
    }, 
    {
      "op": "null", 
      "name": "res5_block0_conv_sep_batchnorm_gamma", 
      "attrs": {
        "fix_gamma": "False", 
        "momentum": "0.9"
      }, 
      "inputs": []
    }, 
    {
      "op": "null", 
      "name": "res5_block0_conv_sep_batchnorm_beta", 
      "attrs": {
        "fix_gamma": "False", 
        "momentum": "0.9"
      }, 
      "inputs": []
    }, 
    {
      "op": "null", 
      "name": "res5_block0_conv_sep_batchnorm_moving_mean", 
      "attrs": {
        "__init__": "[\"zero\", {}]", 
        "fix_gamma": "False", 
        "momentum": "0.9"
      }, 
      "inputs": []
    }, 
    {
      "op": "null", 
      "name": "res5_block0_conv_sep_batchnorm_moving_var", 
      "attrs": {
        "__init__": "[\"one\", {}]", 
        "fix_gamma": "False", 
        "momentum": "0.9"
      }, 
      "inputs": []
    }, 
    {
      "op": "BatchNorm", 
      "name": "res5_block0_conv_sep_batchnorm", 
      "attrs": {
        "fix_gamma": "False", 
        "momentum": "0.9"
      }, 
      "inputs": [[554, 0, 0], [555, 0, 0], [556, 0, 0], [557, 0, 1], [558, 0, 1]]
    }, 
    {
      "op": "null", 
      "name": "res5_block0_conv_sep_relu_gamma", 
      "attrs": {
        "__init__": "[\"Constant\", {\"value\": 0.25}]", 
        "act_type": "prelu"
      }, 
      "inputs": []
    }, 
    {
      "op": "LeakyReLU", 
      "name": "res5_block0_conv_sep_relu", 
      "attrs": {"act_type": "prelu"}, 
      "inputs": [[559, 0, 0], [560, 0, 0]]
    }, 
    {
      "op": "null", 
      "name": "res5_block0_conv_dw_conv2d_weight", 
      "attrs": {
        "kernel": "(3, 3)", 
        "no_bias": "True", 
        "num_filter": "128", 
        "num_group": "128", 
        "pad": "(1, 1)", 
        "stride": "(1, 1)"
      }, 
      "inputs": []
    }, 
    {
      "op": "Convolution", 
      "name": "res5_block0_conv_dw_conv2d", 
      "attrs": {
        "kernel": "(3, 3)", 
        "no_bias": "True", 
        "num_filter": "128", 
        "num_group": "128", 
        "pad": "(1, 1)", 
        "stride": "(1, 1)"
      }, 
      "inputs": [[561, 0, 0], [562, 0, 0]]
    }, 
    {
      "op": "null", 
      "name": "res5_block0_conv_dw_batchnorm_gamma", 
      "attrs": {
        "fix_gamma": "False", 
        "momentum": "0.9"
      }, 
      "inputs": []
    }, 
    {
      "op": "null", 
      "name": "res5_block0_conv_dw_batchnorm_beta", 
      "attrs": {
        "fix_gamma": "False", 
        "momentum": "0.9"
      }, 
      "inputs": []
    }, 
    {
      "op": "null", 
      "name": "res5_block0_conv_dw_batchnorm_moving_mean", 
      "attrs": {
        "__init__": "[\"zero\", {}]", 
        "fix_gamma": "False", 
        "momentum": "0.9"
      }, 
      "inputs": []
    }, 
    {
      "op": "null", 
      "name": "res5_block0_conv_dw_batchnorm_moving_var", 
      "attrs": {
        "__init__": "[\"one\", {}]", 
        "fix_gamma": "False", 
        "momentum": "0.9"
      }, 
      "inputs": []
    }, 
    {
      "op": "BatchNorm", 
      "name": "res5_block0_conv_dw_batchnorm", 
      "attrs": {
        "fix_gamma": "False", 
        "momentum": "0.9"
      }, 
      "inputs": [[563, 0, 0], [564, 0, 0], [565, 0, 0], [566, 0, 1], [567, 0, 1]]
    }, 
    {
      "op": "null", 
      "name": "res5_block0_conv_dw_relu_gamma", 
      "attrs": {
        "__init__": "[\"Constant\", {\"value\": 0.25}]", 
        "act_type": "prelu"
      }, 
      "inputs": []
    }, 
    {
      "op": "LeakyReLU", 
      "name": "res5_block0_conv_dw_relu", 
      "attrs": {"act_type": "prelu"}, 
      "inputs": [[568, 0, 0], [569, 0, 0]]
    }, 
    {
      "op": "null", 
      "name": "res5_block0_conv_proj_conv2d_weight", 
      "attrs": {
        "kernel": "(1, 1)", 
        "no_bias": "True", 
        "num_filter": "128", 
        "num_group": "1", 
        "pad": "(0, 0)", 
        "stride": "(1, 1)"
      }, 
      "inputs": []
    }, 
    {
      "op": "Convolution", 
      "name": "res5_block0_conv_proj_conv2d", 
      "attrs": {
        "kernel": "(1, 1)", 
        "no_bias": "True", 
        "num_filter": "128", 
        "num_group": "1", 
        "pad": "(0, 0)", 
        "stride": "(1, 1)"
      }, 
      "inputs": [[570, 0, 0], [571, 0, 0]]
    }, 
    {
      "op": "null", 
      "name": "res5_block0_conv_proj_batchnorm_gamma", 
      "attrs": {
        "fix_gamma": "False", 
        "momentum": "0.9"
      }, 
      "inputs": []
    }, 
    {
      "op": "null", 
      "name": "res5_block0_conv_proj_batchnorm_beta", 
      "attrs": {
        "fix_gamma": "False", 
        "momentum": "0.9"
      }, 
      "inputs": []
    }, 
    {
      "op": "null", 
      "name": "res5_block0_conv_proj_batchnorm_moving_mean", 
      "attrs": {
        "__init__": "[\"zero\", {}]", 
        "fix_gamma": "False", 
        "momentum": "0.9"
      }, 
      "inputs": []
    }, 
    {
      "op": "null", 
      "name": "res5_block0_conv_proj_batchnorm_moving_var", 
      "attrs": {
        "__init__": "[\"one\", {}]", 
        "fix_gamma": "False", 
        "momentum": "0.9"
      }, 
      "inputs": []
    }, 
    {
      "op": "BatchNorm", 
      "name": "res5_block0_conv_proj_batchnorm", 
      "attrs": {
        "fix_gamma": "False", 
        "momentum": "0.9"
      }, 
      "inputs": [[572, 0, 0], [573, 0, 0], [574, 0, 0], [575, 0, 1], [576, 0, 1]]
    }, 
    {
      "op": "elemwise_add", 
      "name": "_plus18", 
      "inputs": [[577, 0, 0], [552, 0, 0]]
    }, 
    {
      "op": "null", 
      "name": "res5_block1_conv_sep_conv2d_weight", 
      "attrs": {
        "kernel": "(1, 1)", 
        "no_bias": "True", 
        "num_filter": "128", 
        "num_group": "1", 
        "pad": "(0, 0)", 
        "stride": "(1, 1)"
      }, 
      "inputs": []
    }, 
    {
      "op": "Convolution", 
      "name": "res5_block1_conv_sep_conv2d", 
      "attrs": {
        "kernel": "(1, 1)", 
        "no_bias": "True", 
        "num_filter": "128", 
        "num_group": "1", 
        "pad": "(0, 0)", 
        "stride": "(1, 1)"
      }, 
      "inputs": [[578, 0, 0], [579, 0, 0]]
    }, 
    {
      "op": "null", 
      "name": "res5_block1_conv_sep_batchnorm_gamma", 
      "attrs": {
        "fix_gamma": "False", 
        "momentum": "0.9"
      }, 
      "inputs": []
    }, 
    {
      "op": "null", 
      "name": "res5_block1_conv_sep_batchnorm_beta", 
      "attrs": {
        "fix_gamma": "False", 
        "momentum": "0.9"
      }, 
      "inputs": []
    }, 
    {
      "op": "null", 
      "name": "res5_block1_conv_sep_batchnorm_moving_mean", 
      "attrs": {
        "__init__": "[\"zero\", {}]", 
        "fix_gamma": "False", 
        "momentum": "0.9"
      }, 
      "inputs": []
    }, 
    {
      "op": "null", 
      "name": "res5_block1_conv_sep_batchnorm_moving_var", 
      "attrs": {
        "__init__": "[\"one\", {}]", 
        "fix_gamma": "False", 
        "momentum": "0.9"
      }, 
      "inputs": []
    }, 
    {
      "op": "BatchNorm", 
      "name": "res5_block1_conv_sep_batchnorm", 
      "attrs": {
        "fix_gamma": "False", 
        "momentum": "0.9"
      }, 
      "inputs": [[580, 0, 0], [581, 0, 0], [582, 0, 0], [583, 0, 1], [584, 0, 1]]
    }, 
    {
      "op": "null", 
      "name": "res5_block1_conv_sep_relu_gamma", 
      "attrs": {
        "__init__": "[\"Constant\", {\"value\": 0.25}]", 
        "act_type": "prelu"
      }, 
      "inputs": []
    }, 
    {
      "op": "LeakyReLU", 
      "name": "res5_block1_conv_sep_relu", 
      "attrs": {"act_type": "prelu"}, 
      "inputs": [[585, 0, 0], [586, 0, 0]]
    }, 
    {
      "op": "null", 
      "name": "res5_block1_conv_dw_conv2d_weight", 
      "attrs": {
        "kernel": "(3, 3)", 
        "no_bias": "True", 
        "num_filter": "128", 
        "num_group": "128", 
        "pad": "(1, 1)", 
        "stride": "(1, 1)"
      }, 
      "inputs": []
    }, 
    {
      "op": "Convolution", 
      "name": "res5_block1_conv_dw_conv2d", 
      "attrs": {
        "kernel": "(3, 3)", 
        "no_bias": "True", 
        "num_filter": "128", 
        "num_group": "128", 
        "pad": "(1, 1)", 
        "stride": "(1, 1)"
      }, 
      "inputs": [[587, 0, 0], [588, 0, 0]]
    }, 
    {
      "op": "null", 
      "name": "res5_block1_conv_dw_batchnorm_gamma", 
      "attrs": {
        "fix_gamma": "False", 
        "momentum": "0.9"
      }, 
      "inputs": []
    }, 
    {
      "op": "null", 
      "name": "res5_block1_conv_dw_batchnorm_beta", 
      "attrs": {
        "fix_gamma": "False", 
        "momentum": "0.9"
      }, 
      "inputs": []
    }, 
    {
      "op": "null", 
      "name": "res5_block1_conv_dw_batchnorm_moving_mean", 
      "attrs": {
        "__init__": "[\"zero\", {}]", 
        "fix_gamma": "False", 
        "momentum": "0.9"
      }, 
      "inputs": []
    }, 
    {
      "op": "null", 
      "name": "res5_block1_conv_dw_batchnorm_moving_var", 
      "attrs": {
        "__init__": "[\"one\", {}]", 
        "fix_gamma": "False", 
        "momentum": "0.9"
      }, 
      "inputs": []
    }, 
    {
      "op": "BatchNorm", 
      "name": "res5_block1_conv_dw_batchnorm", 
      "attrs": {
        "fix_gamma": "False", 
        "momentum": "0.9"
      }, 
      "inputs": [[589, 0, 0], [590, 0, 0], [591, 0, 0], [592, 0, 1], [593, 0, 1]]
    }, 
    {
      "op": "null", 
      "name": "res5_block1_conv_dw_relu_gamma", 
      "attrs": {
        "__init__": "[\"Constant\", {\"value\": 0.25}]", 
        "act_type": "prelu"
      }, 
      "inputs": []
    }, 
    {
      "op": "LeakyReLU", 
      "name": "res5_block1_conv_dw_relu", 
      "attrs": {"act_type": "prelu"}, 
      "inputs": [[594, 0, 0], [595, 0, 0]]
    }, 
    {
      "op": "null", 
      "name": "res5_block1_conv_proj_conv2d_weight", 
      "attrs": {
        "kernel": "(1, 1)", 
        "no_bias": "True", 
        "num_filter": "128", 
        "num_group": "1", 
        "pad": "(0, 0)", 
        "stride": "(1, 1)"
      }, 
      "inputs": []
    }, 
    {
      "op": "Convolution", 
      "name": "res5_block1_conv_proj_conv2d", 
      "attrs": {
        "kernel": "(1, 1)", 
        "no_bias": "True", 
        "num_filter": "128", 
        "num_group": "1", 
        "pad": "(0, 0)", 
        "stride": "(1, 1)"
      }, 
      "inputs": [[596, 0, 0], [597, 0, 0]]
    }, 
    {
      "op": "null", 
      "name": "res5_block1_conv_proj_batchnorm_gamma", 
      "attrs": {
        "fix_gamma": "False", 
        "momentum": "0.9"
      }, 
      "inputs": []
    }, 
    {
      "op": "null", 
      "name": "res5_block1_conv_proj_batchnorm_beta", 
      "attrs": {
        "fix_gamma": "False", 
        "momentum": "0.9"
      }, 
      "inputs": []
    }, 
    {
      "op": "null", 
      "name": "res5_block1_conv_proj_batchnorm_moving_mean", 
      "attrs": {
        "__init__": "[\"zero\", {}]", 
        "fix_gamma": "False", 
        "momentum": "0.9"
      }, 
      "inputs": []
    }, 
    {
      "op": "null", 
      "name": "res5_block1_conv_proj_batchnorm_moving_var", 
      "attrs": {
        "__init__": "[\"one\", {}]", 
        "fix_gamma": "False", 
        "momentum": "0.9"
      }, 
      "inputs": []
    }, 
    {
      "op": "BatchNorm", 
      "name": "res5_block1_conv_proj_batchnorm", 
      "attrs": {
        "fix_gamma": "False", 
        "momentum": "0.9"
      }, 
      "inputs": [[598, 0, 0], [599, 0, 0], [600, 0, 0], [601, 0, 1], [602, 0, 1]]
    }, 
    {
      "op": "elemwise_add", 
      "name": "_plus19", 
      "inputs": [[603, 0, 0], [578, 0, 0]]
    }, 
    {
      "op": "null", 
      "name": "conv_6_conv2d_weight", 
      "attrs": {
        "kernel": "(7, 7)", 
        "no_bias": "True", 
        "num_filter": "128", 
        "num_group": "128", 
        "pad": "(0, 0)", 
        "stride": "(1, 1)"
      }, 
      "inputs": []
    }, 
    {
      "op": "Convolution", 
      "name": "conv_6_conv2d", 
      "attrs": {
        "kernel": "(7, 7)", 
        "no_bias": "True", 
        "num_filter": "128", 
        "num_group": "128", 
        "pad": "(0, 0)", 
        "stride": "(1, 1)"
      }, 
      "inputs": [[604, 0, 0], [605, 0, 0]]
    }, 
    {
      "op": "null", 
      "name": "conv_6_batchnorm_gamma", 
      "attrs": {
        "fix_gamma": "False", 
        "momentum": "0.9"
      }, 
      "inputs": []
    }, 
    {
      "op": "null", 
      "name": "conv_6_batchnorm_beta", 
      "attrs": {
        "fix_gamma": "False", 
        "momentum": "0.9"
      }, 
      "inputs": []
    }, 
    {
      "op": "null", 
      "name": "conv_6_batchnorm_moving_mean", 
      "attrs": {
        "__init__": "[\"zero\", {}]", 
        "fix_gamma": "False", 
        "momentum": "0.9"
      }, 
      "inputs": []
    }, 
    {
      "op": "null", 
      "name": "conv_6_batchnorm_moving_var", 
      "attrs": {
        "__init__": "[\"one\", {}]", 
        "fix_gamma": "False", 
        "momentum": "0.9"
      }, 
      "inputs": []
    }, 
    {
      "op": "BatchNorm", 
      "name": "conv_6_batchnorm", 
      "attrs": {
        "fix_gamma": "False", 
        "momentum": "0.9"
      }, 
      "inputs": [[606, 0, 0], [607, 0, 0], [608, 0, 0], [609, 0, 1], [610, 0, 1]]
    }, 
    {
      "op": "null", 
      "name": "conv_6_relu_gamma", 
      "attrs": {
        "__init__": "[\"Constant\", {\"value\": 0.25}]", 
        "act_type": "prelu"
      }, 
      "inputs": []
    }, 
    {
      "op": "LeakyReLU", 
      "name": "conv_6_relu", 
      "attrs": {"act_type": "prelu"}, 
      "inputs": [[611, 0, 0], [612, 0, 0]]
    }, 
    {
      "op": "null", 
      "name": "conv7_weight", 
      "attrs": {
        "kernel": "(1, 1)", 
        "num_filter": "144"
      }, 
      "inputs": []
    }, 
    {
      "op": "null", 
      "name": "conv7_bias", 
      "attrs": {
        "kernel": "(1, 1)", 
        "num_filter": "144"
      }, 
      "inputs": []
    }, 
    {
      "op": "Convolution", 
      "name": "conv7", 
      "attrs": {
        "kernel": "(1, 1)", 
        "num_filter": "144"
      }, 
      "inputs": [[613, 0, 0], [614, 0, 0], [615, 0, 0]]
    }, 
    {
      "op": "slice_axis", 
      "name": "slice_axis1", 
      "attrs": {
        "axis": "1", 
        "begin": "0", 
        "end": "2"
      }, 
      "inputs": [[616, 0, 0]]
    }, 
    {
      "op": "Reshape", 
      "name": "gender_fc_reshape", 
      "attrs": {"shape": "(-1, 2)"}, 
      "inputs": [[617, 0, 0]]
    }, 
    {
      "op": "null", 
      "name": "label", 
      "inputs": []
    }, 
    {
      "op": "slice_axis", 
      "name": "slice_axis0", 
      "attrs": {
        "axis": "1", 
        "begin": "0", 
        "end": "1"
      }, 
      "inputs": [[619, 0, 0]]
    }, 
    {
      "op": "Reshape", 
      "name": "reshape0", 
      "attrs": {"shape": "(384,)"}, 
      "inputs": [[620, 0, 0]]
    }, 
    {
      "op": "SoftmaxOutput", 
      "name": "gender_prob", 
      "attrs": {
        "ignore_label": "-1", 
        "normalization": "valid", 
        "use_ignore": "True"
      }, 
      "inputs": [[618, 0, 0], [621, 0, 0]]
    }, 
    {
      "op": "slice_axis", 
      "name": "slice_axis3", 
      "attrs": {
        "axis": "1", 
        "begin": "2", 
        "end": "4"
      }, 
      "inputs": [[616, 0, 0]]
    }, 
    {
      "op": "Reshape", 
      "name": "age_fc_reshape_0", 
      "attrs": {"shape": "(-1, 2)"}, 
      "inputs": [[623, 0, 0]]
    }, 
    {
      "op": "slice_axis", 
      "name": "slice_axis2", 
      "attrs": {
        "axis": "1", 
        "begin": "1", 
        "end": "2"
      }, 
      "inputs": [[619, 0, 0]]
    }, 
    {
      "op": "Reshape", 
      "name": "reshape1", 
      "attrs": {"shape": "(384,)"}, 
      "inputs": [[625, 0, 0]]
    }, 
    {
      "op": "SoftmaxOutput", 
      "name": "age_prob_0", 
      "attrs": {
        "grad_scale": "1", 
        "ignore_label": "-1", 
        "normalization": "valid", 
        "use_ignore": "True"
      }, 
      "inputs": [[624, 0, 0], [626, 0, 0]]
    }, 
    {
      "op": "slice_axis", 
      "name": "slice_axis5", 
      "attrs": {
        "axis": "1", 
        "begin": "4", 
        "end": "6"
      }, 
      "inputs": [[616, 0, 0]]
    }, 
    {
      "op": "Reshape", 
      "name": "age_fc_reshape_1", 
      "attrs": {"shape": "(-1, 2)"}, 
      "inputs": [[628, 0, 0]]
    }, 
    {
      "op": "slice_axis", 
      "name": "slice_axis4", 
      "attrs": {
        "axis": "1", 
        "begin": "2", 
        "end": "3"
      }, 
      "inputs": [[619, 0, 0]]
    }, 
    {
      "op": "Reshape", 
      "name": "reshape2", 
      "attrs": {"shape": "(384,)"}, 
      "inputs": [[630, 0, 0]]
    }, 
    {
      "op": "SoftmaxOutput", 
      "name": "age_prob_1", 
      "attrs": {
        "grad_scale": "1", 
        "ignore_label": "-1", 
        "normalization": "valid", 
        "use_ignore": "True"
      }, 
      "inputs": [[629, 0, 0], [631, 0, 0]]
    }, 
    {
      "op": "slice_axis", 
      "name": "slice_axis7", 
      "attrs": {
        "axis": "1", 
        "begin": "6", 
        "end": "8"
      }, 
      "inputs": [[616, 0, 0]]
    }, 
    {
      "op": "Reshape", 
      "name": "age_fc_reshape_2", 
      "attrs": {"shape": "(-1, 2)"}, 
      "inputs": [[633, 0, 0]]
    }, 
    {
      "op": "slice_axis", 
      "name": "slice_axis6", 
      "attrs": {
        "axis": "1", 
        "begin": "3", 
        "end": "4"
      }, 
      "inputs": [[619, 0, 0]]
    }, 
    {
      "op": "Reshape", 
      "name": "reshape3", 
      "attrs": {"shape": "(384,)"}, 
      "inputs": [[635, 0, 0]]
    }, 
    {
      "op": "SoftmaxOutput", 
      "name": "age_prob_2", 
      "attrs": {
        "grad_scale": "1", 
        "ignore_label": "-1", 
        "normalization": "valid", 
        "use_ignore": "True"
      }, 
      "inputs": [[634, 0, 0], [636, 0, 0]]
    }, 
    {
      "op": "slice_axis", 
      "name": "slice_axis9", 
      "attrs": {
        "axis": "1", 
        "begin": "8", 
        "end": "10"
      }, 
      "inputs": [[616, 0, 0]]
    }, 
    {
      "op": "Reshape", 
      "name": "age_fc_reshape_3", 
      "attrs": {"shape": "(-1, 2)"}, 
      "inputs": [[638, 0, 0]]
    }, 
    {
      "op": "slice_axis", 
      "name": "slice_axis8", 
      "attrs": {
        "axis": "1", 
        "begin": "4", 
        "end": "5"
      }, 
      "inputs": [[619, 0, 0]]
    }, 
    {
      "op": "Reshape", 
      "name": "reshape4", 
      "attrs": {"shape": "(384,)"}, 
      "inputs": [[640, 0, 0]]
    }, 
    {
      "op": "SoftmaxOutput", 
      "name": "age_prob_3", 
      "attrs": {
        "grad_scale": "1", 
        "ignore_label": "-1", 
        "normalization": "valid", 
        "use_ignore": "True"
      }, 
      "inputs": [[639, 0, 0], [641, 0, 0]]
    }, 
    {
      "op": "slice_axis", 
      "name": "slice_axis11", 
      "attrs": {
        "axis": "1", 
        "begin": "10", 
        "end": "12"
      }, 
      "inputs": [[616, 0, 0]]
    }, 
    {
      "op": "Reshape", 
      "name": "age_fc_reshape_4", 
      "attrs": {"shape": "(-1, 2)"}, 
      "inputs": [[643, 0, 0]]
    }, 
    {
      "op": "slice_axis", 
      "name": "slice_axis10", 
      "attrs": {
        "axis": "1", 
        "begin": "5", 
        "end": "6"
      }, 
      "inputs": [[619, 0, 0]]
    }, 
    {
      "op": "Reshape", 
      "name": "reshape5", 
      "attrs": {"shape": "(384,)"}, 
      "inputs": [[645, 0, 0]]
    }, 
    {
      "op": "SoftmaxOutput", 
      "name": "age_prob_4", 
      "attrs": {
        "grad_scale": "1", 
        "ignore_label": "-1", 
        "normalization": "valid", 
        "use_ignore": "True"
      }, 
      "inputs": [[644, 0, 0], [646, 0, 0]]
    }, 
    {
      "op": "slice_axis", 
      "name": "slice_axis13", 
      "attrs": {
        "axis": "1", 
        "begin": "12", 
        "end": "14"
      }, 
      "inputs": [[616, 0, 0]]
    }, 
    {
      "op": "Reshape", 
      "name": "age_fc_reshape_5", 
      "attrs": {"shape": "(-1, 2)"}, 
      "inputs": [[648, 0, 0]]
    }, 
    {
      "op": "slice_axis", 
      "name": "slice_axis12", 
…
        "use_ignore": "True"
      }, 
      "inputs": [[789, 0, 0], [791, 0, 0]]
    }, 
    {
      "op": "slice_axis", 
      "name": "slice_axis71", 
      "attrs": {
        "axis": "1", 
        "begin": "70", 
        "end": "72"
      }, 
      "inputs": [[616, 0, 0]]
    }, 
    {
      "op": "Reshape", 
      "name": "age_fc_reshape_34", 
      "attrs": {"shape": "(-1, 2)"}, 
      "inputs": [[793, 0, 0]]
    }, 
    {
      "op": "slice_axis", 
      "name": "slice_axis70", 
      "attrs": {
        "axis": "1", 
        "begin": "35", 
        "end": "36"
      }, 
      "inputs": [[619, 0, 0]]
    }, 
    {
      "op": "Reshape", 
      "name": "reshape35", 
      "attrs": {"shape": "(384,)"}, 
      "inputs": [[795, 0, 0]]
    }, 
    {
      "op": "SoftmaxOutput", 
      "name": "age_prob_34", 
      "attrs": {
        "grad_scale": "1", 
        "ignore_label": "-1", 
        "normalization": "valid", 
        "use_ignore": "True"
      }, 
      "inputs": [[794, 0, 0], [796, 0, 0]]
    }, 
    {
      "op": "slice_axis", 
      "name": "slice_axis73", 
      "attrs": {
        "axis": "1", 
        "begin": "72", 
        "end": "74"
      }, 
      "inputs": [[616, 0, 0]]
    }, 
    {
      "op": "Reshape", 
      "name": "age_fc_reshape_35", 
      "attrs": {"shape": "(-1, 2)"}, 
      "inputs": [[798, 0, 0]]
    }, 
    {
      "op": "slice_axis", 
      "name": "slice_axis72", 
      "attrs": {
        "axis": "1", 
        "begin": "36", 
        "end": "37"
      }, 
      "inputs": [[619, 0, 0]]
    }, 
    {
      "op": "Reshape", 
      "name": "reshape36", 
      "attrs": {"shape": "(384,)"}, 
      "inputs": [[800, 0, 0]]
    }, 
    {
      "op": "SoftmaxOutput", 
      "name": "age_prob_35", 
      "attrs": {
        "grad_scale": "1", 
        "ignore_label": "-1", 
        "normalization": "valid", 
        "use_ignore": "True"
      }, 
      "inputs": [[799, 0, 0], [801, 0, 0]]
    }, 
    {
      "op": "slice_axis", 
      "name": "slice_axis75", 
      "attrs": {
        "axis": "1", 
        "begin": "74", 
        "end": "76"
      }, 
      "inputs": [[616, 0, 0]]
    }, 
    {
      "op": "Reshape", 
      "name": "age_fc_reshape_36", 
      "attrs": {"shape": "(-1, 2)"}, 
      "inputs": [[803, 0, 0]]
    }, 
    {
      "op": "slice_axis", 
      "name": "slice_axis74", 
      "attrs": {
        "axis": "1", 
        "begin": "37", 
        "end": "38"
      }, 
      "inputs": [[619, 0, 0]]
    }, 
    {
      "op": "Reshape", 
      "name": "reshape37", 
      "attrs": {"shape": "(384,)"}, 
      "inputs": [[805, 0, 0]]
    }, 
    {
      "op": "SoftmaxOutput", 
      "name": "age_prob_36", 
      "attrs": {
        "grad_scale": "1", 
        "ignore_label": "-1", 
        "normalization": "valid", 
        "use_ignore": "True"
      }, 
      "inputs": [[804, 0, 0], [806, 0, 0]]
    }, 
    {
      "op": "slice_axis", 
      "name": "slice_axis77", 
      "attrs": {
        "axis": "1", 
        "begin": "76", 
        "end": "78"
      }, 
      "inputs": [[616, 0, 0]]
    }, 
    {
      "op": "Reshape", 
      "name": "age_fc_reshape_37", 
      "attrs": {"shape": "(-1, 2)"}, 
      "inputs": [[808, 0, 0]]
    }, 
    {
      "op": "slice_axis", 
      "name": "slice_axis76", 
      "attrs": {
        "axis": "1", 
        "begin": "38", 
        "end": "39"
      }, 
      "inputs": [[619, 0, 0]]
    }, 
    {
      "op": "Reshape", 
      "name": "reshape38", 
      "attrs": {"shape": "(384,)"}, 
      "inputs": [[810, 0, 0]]
    }, 
    {
      "op": "SoftmaxOutput", 
      "name": "age_prob_37", 
      "attrs": {
        "grad_scale": "1", 
        "ignore_label": "-1", 
        "normalization": "valid", 
        "use_ignore": "True"
      }, 
      "inputs": [[809, 0, 0], [811, 0, 0]]
    }, 
    {
      "op": "slice_axis", 
      "name": "slice_axis79", 
      "attrs": {
        "axis": "1", 
        "begin": "78", 
        "end": "80"
      }, 
      "inputs": [[616, 0, 0]]
    }, 
    {
      "op": "Reshape", 
      "name": "age_fc_reshape_38", 
      "attrs": {"shape": "(-1, 2)"}, 
      "inputs": [[813, 0, 0]]
    }, 
    {
      "op": "slice_axis", 
      "name": "slice_axis78", 
      "attrs": {
        "axis": "1", 
        "begin": "39", 
        "end": "40"
      }, 
      "inputs": [[619, 0, 0]]
    }, 
    {
      "op": "Reshape", 
      "name": "reshape39", 
      "attrs": {"shape": "(384,)"}, 
      "inputs": [[815, 0, 0]]
    }, 
    {
      "op": "SoftmaxOutput", 
      "name": "age_prob_38", 
      "attrs": {
        "grad_scale": "1", 
        "ignore_label": "-1", 
        "normalization": "valid", 
        "use_ignore": "True"
      }, 
      "inputs": [[814, 0, 0], [816, 0, 0]]
    }, 
    {
      "op": "slice_axis", 
      "name": "slice_axis81", 
      "attrs": {
        "axis": "1", 
        "begin": "80", 
        "end": "82"
      }, 
      "inputs": [[616, 0, 0]]
    }, 
    {
      "op": "Reshape", 
      "name": "age_fc_reshape_39", 
      "attrs": {"shape": "(-1, 2)"}, 
      "inputs": [[818, 0, 0]]
    }, 
    {
      "op": "slice_axis", 
      "name": "slice_axis80", 
      "attrs": {
        "axis": "1", 
        "begin": "40", 
        "end": "41"
      }, 
      "inputs": [[619, 0, 0]]
    }, 
    {
      "op": "Reshape", 
      "name": "reshape40", 
      "attrs": {"shape": "(384,)"}, 
      "inputs": [[820, 0, 0]]
    }, 
    {
      "op": "SoftmaxOutput", 
      "name": "age_prob_39", 
      "attrs": {
        "grad_scale": "1", 
        "ignore_label": "-1", 
        "normalization": "valid", 
        "use_ignore": "True"
      }, 
      "inputs": [[819, 0, 0], [821, 0, 0]]
    }, 
    {
      "op": "slice_axis", 
      "name": "slice_axis83", 
      "attrs": {
        "axis": "1", 
        "begin": "82", 
        "end": "84"
      }, 
      "inputs": [[616, 0, 0]]
    }, 
    {
      "op": "Reshape", 
      "name": "age_fc_reshape_40", 
      "attrs": {"shape": "(-1, 2)"}, 
      "inputs": [[823, 0, 0]]
    }, 
    {
      "op": "slice_axis", 
      "name": "slice_axis82", 
      "attrs": {
        "axis": "1", 
        "begin": "41", 
        "end": "42"
      }, 
      "inputs": [[619, 0, 0]]
    }, 
    {
      "op": "Reshape", 
      "name": "reshape41", 
      "attrs": {"shape": "(384,)"}, 
      "inputs": [[825, 0, 0]]
    }, 
    {
      "op": "SoftmaxOutput", 
      "name": "age_prob_40", 
      "attrs": {
        "grad_scale": "1", 
        "ignore_label": "-1", 
        "normalization": "valid", 
        "use_ignore": "True"
      }, 
      "inputs": [[824, 0, 0], [826, 0, 0]]
    }, 
    {
      "op": "slice_axis", 
      "name": "slice_axis85", 
      "attrs": {
        "axis": "1", 
        "begin": "84", 
        "end": "86"
      }, 
      "inputs": [[616, 0, 0]]
    }, 
    {
      "op": "Reshape", 
      "name": "age_fc_reshape_41", 
      "attrs": {"shape": "(-1, 2)"}, 
      "inputs": [[828, 0, 0]]
    }, 
    {
      "op": "slice_axis", 
      "name": "slice_axis84", 
      "attrs": {
        "axis": "1", 
        "begin": "42", 
        "end": "43"
      }, 
      "inputs": [[619, 0, 0]]
    }, 
    {
      "op": "Reshape", 
      "name": "reshape42", 
      "attrs": {"shape": "(384,)"}, 
      "inputs": [[830, 0, 0]]
    }, 
    {
      "op": "SoftmaxOutput", 
      "name": "age_prob_41", 
      "attrs": {
        "grad_scale": "1", 
        "ignore_label": "-1", 
        "normalization": "valid", 
        "use_ignore": "True"
      }, 
      "inputs": [[829, 0, 0], [831, 0, 0]]
    }, 
    {
      "op": "slice_axis", 
      "name": "slice_axis87", 
      "attrs": {
        "axis": "1", 
        "begin": "86", 
        "end": "88"
      }, 
      "inputs": [[616, 0, 0]]
    }, 
    {
      "op": "Reshape", 
      "name": "age_fc_reshape_42", 
      "attrs": {"shape": "(-1, 2)"}, 
      "inputs": [[833, 0, 0]]
    }, 
    {
      "op": "slice_axis", 
      "name": "slice_axis86", 
      "attrs": {
        "axis": "1", 
        "begin": "43", 
        "end": "44"
      }, 
      "inputs": [[619, 0, 0]]
    }, 
    {
      "op": "Reshape", 
      "name": "reshape43", 
      "attrs": {"shape": "(384,)"}, 
      "inputs": [[835, 0, 0]]
    }, 
    {
      "op": "SoftmaxOutput", 
      "name": "age_prob_42", 
      "attrs": {
        "grad_scale": "1", 
        "ignore_label": "-1", 
        "normalization": "valid", 
        "use_ignore": "True"
      }, 
      "inputs": [[834, 0, 0], [836, 0, 0]]
    }, 
    {
      "op": "slice_axis", 
      "name": "slice_axis89", 
      "attrs": {
        "axis": "1", 
        "begin": "88", 
        "end": "90"
      }, 
      "inputs": [[616, 0, 0]]
    }, 
    {
      "op": "Reshape", 
      "name": "age_fc_reshape_43", 
      "attrs": {"shape": "(-1, 2)"}, 
      "inputs": [[838, 0, 0]]
    }, 
    {
      "op": "slice_axis", 
      "name": "slice_axis88", 
      "attrs": {
        "axis": "1", 
        "begin": "44", 
        "end": "45"
      }, 
      "inputs": [[619, 0, 0]]
    }, 
    {
      "op": "Reshape", 
      "name": "reshape44", 
      "attrs": {"shape": "(384,)"}, 
      "inputs": [[840, 0, 0]]
    }, 
    {
      "op": "SoftmaxOutput", 
      "name": "age_prob_43", 
      "attrs": {
        "grad_scale": "1", 
        "ignore_label": "-1", 
        "normalization": "valid", 
        "use_ignore": "True"
      }, 
      "inputs": [[839, 0, 0], [841, 0, 0]]
    }, 
    {
      "op": "slice_axis", 
      "name": "slice_axis91", 
      "attrs": {
        "axis": "1", 
        "begin": "90", 
        "end": "92"
      }, 
      "inputs": [[616, 0, 0]]
    }, 
    {
      "op": "Reshape", 
      "name": "age_fc_reshape_44", 
      "attrs": {"shape": "(-1, 2)"}, 
      "inputs": [[843, 0, 0]]
    }, 
    {
      "op": "slice_axis", 
      "name": "slice_axis90", 
      "attrs": {
        "axis": "1", 
        "begin": "45", 
        "end": "46"
      }, 
      "inputs": [[619, 0, 0]]
    }, 
    {
      "op": "Reshape", 
      "name": "reshape45", 
      "attrs": {"shape": "(384,)"}, 
      "inputs": [[845, 0, 0]]
    }, 
    {
      "op": "SoftmaxOutput", 
      "name": "age_prob_44", 
      "attrs": {
        "grad_scale": "1", 
        "ignore_label": "-1", 
        "normalization": "valid", 
        "use_ignore": "True"
      }, 
      "inputs": [[844, 0, 0], [846, 0, 0]]
    }, 
    {
      "op": "slice_axis", 
      "name": "slice_axis93", 
      "attrs": {
        "axis": "1", 
        "begin": "92", 
        "end": "94"
      }, 
      "inputs": [[616, 0, 0]]
    }, 
    {
      "op": "Reshape", 
      "name": "age_fc_reshape_45", 
      "attrs": {"shape": "(-1, 2)"}, 
      "inputs": [[848, 0, 0]]
    }, 
    {
      "op": "slice_axis", 
      "name": "slice_axis92", 
      "attrs": {
        "axis": "1", 
        "begin": "46", 
        "end": "47"
      }, 
      "inputs": [[619, 0, 0]]
    }, 
    {
      "op": "Reshape", 
      "name": "reshape46", 
      "attrs": {"shape": "(384,)"}, 
      "inputs": [[850, 0, 0]]
    }, 
    {
      "op": "SoftmaxOutput", 
      "name": "age_prob_45", 
      "attrs": {
        "grad_scale": "1", 
        "ignore_label": "-1", 
        "normalization": "valid", 
        "use_ignore": "True"
      }, 
      "inputs": [[849, 0, 0], [851, 0, 0]]
    }, 
    {
      "op": "slice_axis", 
      "name": "slice_axis95", 
      "attrs": {
        "axis": "1", 
        "begin": "94", 
        "end": "96"
      }, 
      "inputs": [[616, 0, 0]]
    }, 
    {
      "op": "Reshape", 
      "name": "age_fc_reshape_46", 
      "attrs": {"shape": "(-1, 2)"}, 
      "inputs": [[853, 0, 0]]
    }, 
    {
      "op": "slice_axis", 
      "name": "slice_axis94", 
      "attrs": {
        "axis": "1", 
        "begin": "47", 
        "end": "48"
      }, 
      "inputs": [[619, 0, 0]]
    }, 
    {
      "op": "Reshape", 
      "name": "reshape47", 
      "attrs": {"shape": "(384,)"}, 
      "inputs": [[855, 0, 0]]
    }, 
    {
      "op": "SoftmaxOutput", 
      "name": "age_prob_46", 
      "attrs": {
        "grad_scale": "1", 
        "ignore_label": "-1", 
        "normalization": "valid", 
        "use_ignore": "True"
      }, 
      "inputs": [[854, 0, 0], [856, 0, 0]]
    }, 
    {
      "op": "slice_axis", 
      "name": "slice_axis97", 
      "attrs": {
        "axis": "1", 
        "begin": "96", 
        "end": "98"
      }, 
      "inputs": [[616, 0, 0]]
    }, 
    {
      "op": "Reshape", 
      "name": "age_fc_reshape_47", 
      "attrs": {"shape": "(-1, 2)"}, 
      "inputs": [[858, 0, 0]]
    }, 
    {
      "op": "slice_axis", 
      "name": "slice_axis96", 
      "attrs": {
        "axis": "1", 
        "begin": "48", 
        "end": "49"
      }, 
      "inputs": [[619, 0, 0]]
    }, 
    {
      "op": "Reshape", 
      "name": "reshape48", 
      "attrs": {"shape": "(384,)"}, 
      "inputs": [[860, 0, 0]]
    }, 
    {
      "op": "SoftmaxOutput", 
      "name": "age_prob_47", 
      "attrs": {
        "grad_scale": "1", 
        "ignore_label": "-1", 
        "normalization": "valid", 
        "use_ignore": "True"
      }, 
      "inputs": [[859, 0, 0], [861, 0, 0]]
    }, 
    {
      "op": "slice_axis", 
      "name": "slice_axis99", 
      "attrs": {
        "axis": "1", 
        "begin": "98", 
        "end": "100"
      }, 
      "inputs": [[616, 0, 0]]
    }, 
    {
      "op": "Reshape", 
      "name": "age_fc_reshape_48", 
      "attrs": {"shape": "(-1, 2)"}, 
      "inputs": [[863, 0, 0]]
    }, 
    {
      "op": "slice_axis", 
      "name": "slice_axis98", 
      "attrs": {
        "axis": "1", 
        "begin": "49", 
        "end": "50"
      }, 
      "inputs": [[619, 0, 0]]
    }, 
    {
      "op": "Reshape", 
      "name": "reshape49", 
      "attrs": {"shape": "(384,)"}, 
      "inputs": [[865, 0, 0]]
    }, 
    {
      "op": "SoftmaxOutput", 
      "name": "age_prob_48", 
      "attrs": {
        "grad_scale": "1", 
        "ignore_label": "-1", 
        "normalization": "valid", 
        "use_ignore": "True"
      }, 
      "inputs": [[864, 0, 0], [866, 0, 0]]
    }, 
    {
      "op": "slice_axis", 
      "name": "slice_axis101", 
      "attrs": {
        "axis": "1", 
        "begin": "100", 
        "end": "102"
      }, 
      "inputs": [[616, 0, 0]]
    }, 
    {
      "op": "Reshape", 
      "name": "age_fc_reshape_49", 
      "attrs": {"shape": "(-1, 2)"}, 
      "inputs": [[868, 0, 0]]
    }, 
    {
      "op": "slice_axis", 
      "name": "slice_axis100", 
      "attrs": {
        "axis": "1", 
        "begin": "50", 
        "end": "51"
      }, 
      "inputs": [[619, 0, 0]]
    }, 
    {
      "op": "Reshape", 
      "name": "reshape50", 
      "attrs": {"shape": "(384,)"}, 
      "inputs": [[870, 0, 0]]
    }, 
    {
      "op": "SoftmaxOutput", 
      "name": "age_prob_49", 
      "attrs": {
        "grad_scale": "1", 
        "ignore_label": "-1", 
        "normalization": "valid", 
        "use_ignore": "True"
      }, 
      "inputs": [[869, 0, 0], [871, 0, 0]]
    }, 
    {
      "op": "slice_axis", 
      "name": "slice_axis103", 
      "attrs": {
        "axis": "1", 
        "begin": "102", 
        "end": "104"
      }, 
      "inputs": [[616, 0, 0]]
    }, 
    {
      "op": "Reshape", 
      "name": "age_fc_reshape_50", 
      "attrs": {"shape": "(-1, 2)"}, 
      "inputs": [[873, 0, 0]]
    }, 
    {
      "op": "slice_axis", 
      "name": "slice_axis102", 
      "attrs": {
        "axis": "1", 
        "begin": "51", 
        "end": "52"
      }, 
      "inputs": [[619, 0, 0]]
    }, 
    {
      "op": "Reshape", 
      "name": "reshape51", 
      "attrs": {"shape": "(384,)"}, 
      "inputs": [[875, 0, 0]]
    }, 
    {
      "op": "SoftmaxOutput", 
      "name": "age_prob_50", 
      "attrs": {
        "grad_scale": "1", 
        "ignore_label": "-1", 
        "normalization": "valid", 
        "use_ignore": "True"
      }, 
      "inputs": [[874, 0, 0], [876, 0, 0]]
    }, 
    {
      "op": "slice_axis", 
      "name": "slice_axis105", 
      "attrs": {
        "axis": "1", 
        "begin": "104", 
        "end": "106"
      }, 
      "inputs": [[616, 0, 0]]
    }, 
    {
      "op": "Reshape", 
      "name": "age_fc_reshape_51", 
      "attrs": {"shape": "(-1, 2)"}, 
      "inputs": [[878, 0, 0]]
    }, 
    {
      "op": "slice_axis", 
      "name": "slice_axis104", 
      "attrs": {
        "axis": "1", 
        "begin": "52", 
        "end": "53"
      }, 
      "inputs": [[619, 0, 0]]
    }, 
    {
      "op": "Reshape", 
      "name": "reshape52", 
      "attrs": {"shape": "(384,)"}, 
      "inputs": [[880, 0, 0]]
    }, 
    {
      "op": "SoftmaxOutput", 
      "name": "age_prob_51", 
      "attrs": {
        "grad_scale": "1", 
        "ignore_label": "-1", 
        "normalization": "valid", 
        "use_ignore": "True"
      }, 
      "inputs": [[879, 0, 0], [881, 0, 0]]
    }, 
    {
      "op": "slice_axis", 
      "name": "slice_axis107", 
      "attrs": {
        "axis": "1", 
        "begin": "106", 
        "end": "108"
      }, 
      "inputs": [[616, 0, 0]]
    }, 
    {
      "op": "Reshape", 
      "name": "age_fc_reshape_52", 
      "attrs": {"shape": "(-1, 2)"}, 
      "inputs": [[883, 0, 0]]
    }, 
    {
      "op": "slice_axis", 
      "name": "slice_axis106", 
      "attrs": {
        "axis": "1", 
        "begin": "53", 
        "end": "54"
      }, 
      "inputs": [[619, 0, 0]]
    }, 
    {
      "op": "Reshape", 
      "name": "reshape53", 
      "attrs": {"shape": "(384,)"}, 
      "inputs": [[885, 0, 0]]
    }, 
    {
      "op": "SoftmaxOutput", 
      "name": "age_prob_52", 
      "attrs": {
        "grad_scale": "1", 
        "ignore_label": "-1", 
        "normalization": "valid", 
        "use_ignore": "True"
      }, 
      "inputs": [[884, 0, 0], [886, 0, 0]]
    }, 
    {
      "op": "slice_axis", 
      "name": "slice_axis109", 
      "attrs": {
        "axis": "1", 
        "begin": "108", 
        "end": "110"
      }, 
      "inputs": [[616, 0, 0]]
    }, 
    {
      "op": "Reshape", 
      "name": "age_fc_reshape_53", 
      "attrs": {"shape": "(-1, 2)"}, 
      "inputs": [[888, 0, 0]]
    }, 
    {
      "op": "slice_axis", 
      "name": "slice_axis108", 
      "attrs": {
        "axis": "1", 
        "begin": "54", 
        "end": "55"
      }, 
      "inputs": [[619, 0, 0]]
    }, 
    {
      "op": "Reshape", 
      "name": "reshape54", 
      "attrs": {"shape": "(384,)"}, 
      "inputs": [[890, 0, 0]]
    }, 
    {
      "op": "SoftmaxOutput", 
      "name": "age_prob_53", 
      "attrs": {
        "grad_scale": "1", 
        "ignore_label": "-1", 
        "normalization": "valid", 
        "use_ignore": "True"
      }, 
      "inputs": [[889, 0, 0], [891, 0, 0]]
    }, 
    {
      "op": "slice_axis", 
      "name": "slice_axis111", 
      "attrs": {
        "axis": "1", 
        "begin": "110", 
        "end": "112"
      }, 
      "inputs": [[616, 0, 0]]
    }, 
    {
      "op": "Reshape", 
      "name": "age_fc_reshape_54", 
      "attrs": {"shape": "(-1, 2)"}, 
      "inputs": [[893, 0, 0]]
    }, 
    {
      "op": "slice_axis", 
      "name": "slice_axis110", 
      "attrs": {
        "axis": "1", 
        "begin": "55", 
        "end": "56"
      }, 
      "inputs": [[619, 0, 0]]
    }, 
    {
      "op": "Reshape", 
      "name": "reshape55", 
      "attrs": {"shape": "(384,)"}, 
      "inputs": [[895, 0, 0]]
    }, 
    {
      "op": "SoftmaxOutput", 
      "name": "age_prob_54", 
      "attrs": {
        "grad_scale": "1", 
        "ignore_label": "-1", 
        "normalization": "valid", 
        "use_ignore": "True"
      }, 
      "inputs": [[894, 0, 0], [896, 0, 0]]
    }, 
    {
      "op": "slice_axis", 
      "name": "slice_axis113", 
      "attrs": {
        "axis": "1", 
        "begin": "112", 
        "end": "114"
      }, 
      "inputs": [[616, 0, 0]]
    }, 
    {
      "op": "Reshape", 
      "name": "age_fc_reshape_55", 
      "attrs": {"shape": "(-1, 2)"}, 
      "inputs": [[898, 0, 0]]
    }, 
    {
      "op": "slice_axis", 
      "name": "slice_axis112", 
      "attrs": {
        "axis": "1", 
        "begin": "56", 
        "end": "57"
      }, 
      "inputs": [[619, 0, 0]]
    }, 
    {
      "op": "Reshape", 
      "name": "reshape56", 
      "attrs": {"shape": "(384,)"}, 
      "inputs": [[900, 0, 0]]
    }, 
    {
      "op": "SoftmaxOutput", 
      "name": "age_prob_55", 
      "attrs": {
        "grad_scale": "1", 
        "ignore_label": "-1", 
        "normalization": "valid", 
        "use_ignore": "True"
      }, 
      "inputs": [[899, 0, 0], [901, 0, 0]]
    }, 
    {
      "op": "slice_axis", 
      "name": "slice_axis115", 
      "attrs": {
        "axis": "1", 
        "begin": "114", 
        "end": "116"
      }, 
      "inputs": [[616, 0, 0]]
    }, 
    {
      "op": "Reshape", 
      "name": "age_fc_reshape_56", 
      "attrs": {"shape": "(-1, 2)"}, 
      "inputs": [[903, 0, 0]]
    }, 
    {
      "op": "slice_axis", 
      "name": "slice_axis114", 
      "attrs": {
        "axis": "1", 
        "begin": "57", 
        "end": "58"
      }, 
      "inputs": [[619, 0, 0]]
    }, 
    {
      "op": "Reshape", 
      "name": "reshape57", 
      "attrs": {"shape": "(384,)"}, 
      "inputs": [[905, 0, 0]]
    }, 
    {
      "op": "SoftmaxOutput", 
      "name": "age_prob_56", 
      "attrs": {
        "grad_scale": "1", 
        "ignore_label": "-1", 
        "normalization": "valid", 
        "use_ignore": "True"
      }, 
      "inputs": [[904, 0, 0], [906, 0, 0]]
    }, 
    {
      "op": "slice_axis", 
      "name": "slice_axis117", 
      "attrs": {
        "axis": "1", 
        "begin": "116", 
        "end": "118"
      }, 
      "inputs": [[616, 0, 0]]
    }, 
    {
      "op": "Reshape", 
      "name": "age_fc_reshape_57", 
      "attrs": {"shape": "(-1, 2)"}, 
      "inputs": [[908, 0, 0]]
    }, 
    {
      "op": "slice_axis", 
      "name": "slice_axis116", 
      "attrs": {
        "axis": "1", 
        "begin": "58", 
        "end": "59"
      }, 
      "inputs": [[619, 0, 0]]
    }, 
    {
      "op": "Reshape", 
      "name": "reshape58", 
      "attrs": {"shape": "(384,)"}, 
      "inputs": [[910, 0, 0]]
    }, 
    {
      "op": "SoftmaxOutput", 
      "name": "age_prob_57", 
      "attrs": {
        "grad_scale": "1", 
        "ignore_label": "-1", 
        "normalization": "valid", 
        "use_ignore": "True"
      }, 
      "inputs": [[909, 0, 0], [911, 0, 0]]
    }, 
    {
      "op": "slice_axis", 
      "name": "slice_axis119", 
      "attrs": {
        "axis": "1", 
        "begin": "118", 
        "end": "120"
      }, 
      "inputs": [[616, 0, 0]]
    }, 
    {
      "op": "Reshape", 
      "name": "age_fc_reshape_58", 
      "attrs": {"shape": "(-1, 2)"}, 
      "inputs": [[913, 0, 0]]
    }, 
    {
      "op": "slice_axis", 
      "name": "slice_axis118", 
      "attrs": {
        "axis": "1", 
        "begin": "59", 
        "end": "60"
      }, 
      "inputs": [[619, 0, 0]]
    }, 
    {
      "op": "Reshape", 
      "name": "reshape59", 
      "attrs": {"shape": "(384,)"}, 
      "inputs": [[915, 0, 0]]
    }, 
    {
      "op": "SoftmaxOutput", 
      "name": "age_prob_58", 
      "attrs": {
        "grad_scale": "1", 
        "ignore_label": "-1", 
        "normalization": "valid", 
        "use_ignore": "True"
      }, 
      "inputs": [[914, 0, 0], [916, 0, 0]]
    }, 
    {
      "op": "slice_axis", 
      "name": "slice_axis121", 
      "attrs": {
        "axis": "1", 
        "begin": "120", 
        "end": "122"
      }, 
      "inputs": [[616, 0, 0]]
    }, 
    {
      "op": "Reshape", 
      "name": "age_fc_reshape_59", 
      "attrs": {"shape": "(-1, 2)"}, 
      "inputs": [[918, 0, 0]]
    }, 
    {
      "op": "slice_axis", 
      "name": "slice_axis120", 
      "attrs": {
        "axis": "1", 
        "begin": "60", 
        "end": "61"
      }, 
      "inputs": [[619, 0, 0]]
    }, 
    {
      "op": "Reshape", 
      "name": "reshape60", 
      "attrs": {"shape": "(384,)"}, 
      "inputs": [[920, 0, 0]]
    }, 
    {
      "op": "SoftmaxOutput", 
      "name": "age_prob_59", 
      "attrs": {
        "grad_scale": "1", 
        "ignore_label": "-1", 
        "normalization": "valid", 
        "use_ignore": "True"
      }, 
      "inputs": [[919, 0, 0], [921, 0, 0]]
    }, 
    {
      "op": "slice_axis", 
      "name": "slice_axis123", 
      "attrs": {
        "axis": "1", 
        "begin": "122", 
        "end": "124"
      }, 
      "inputs": [[616, 0, 0]]
    }, 
    {
      "op": "Reshape", 
      "name": "age_fc_reshape_60", 
      "attrs": {"shape": "(-1, 2)"}, 
      "inputs": [[923, 0, 0]]
    }, 
    {
      "op": "slice_axis", 
      "name": "slice_axis122", 
      "attrs": {
        "axis": "1", 
        "begin": "61", 
        "end": "62"
      }, 
      "inputs": [[619, 0, 0]]
    }, 
    {
      "op": "Reshape", 
      "name": "reshape61", 
      "attrs": {"shape": "(384,)"}, 
      "inputs": [[925, 0, 0]]
    }, 
    {
      "op": "SoftmaxOutput", 
      "name": "age_prob_60", 
      "attrs": {
        "grad_scale": "1", 
        "ignore_label": "-1", 
        "normalization": "valid", 
        "use_ignore": "True"
      }, 
      "inputs": [[924, 0, 0], [926, 0, 0]]
    }, 
    {
      "op": "slice_axis", 
      "name": "slice_axis125", 
      "attrs": {
        "axis": "1", 
        "begin": "124", 
        "end": "126"
      }, 
      "inputs": [[616, 0, 0]]
    }, 
    {
      "op": "Reshape", 
      "name": "age_fc_reshape_61", 
      "attrs": {"shape": "(-1, 2)"}, 
      "inputs": [[928, 0, 0]]
    }, 
    {
      "op": "slice_axis", 
      "name": "slice_axis124", 
      "attrs": {
        "axis": "1", 
        "begin": "62", 
        "end": "63"
      }, 
      "inputs": [[619, 0, 0]]
    }, 
    {
      "op": "Reshape", 
      "name": "reshape62", 
      "attrs": {"shape": "(384,)"}, 
      "inputs": [[930, 0, 0]]
    }, 
    {
      "op": "SoftmaxOutput", 
      "name": "age_prob_61", 
      "attrs": {
        "grad_scale": "1", 
        "ignore_label": "-1", 
        "normalization": "valid", 
        "use_ignore": "True"
      }, 
      "inputs": [[929, 0, 0], [931, 0, 0]]
    }, 
    {
      "op": "slice_axis", 
      "name": "slice_axis127", 
      "attrs": {
        "axis": "1", 
        "begin": "126", 
        "end": "128"
      }, 
      "inputs": [[616, 0, 0]]
    }, 
    {
      "op": "Reshape", 
      "name": "age_fc_reshape_62", 
      "attrs": {"shape": "(-1, 2)"}, 
      "inputs": [[933, 0, 0]]
    }, 
    {
      "op": "slice_axis", 
      "name": "slice_axis126", 
      "attrs": {
        "axis": "1", 
        "begin": "63", 
        "end": "64"
      }, 
      "inputs": [[619, 0, 0]]
    }, 
    {
      "op": "Reshape", 
      "name": "reshape63", 
      "attrs": {"shape": "(384,)"}, 
      "inputs": [[935, 0, 0]]
    }, 
    {
      "op": "SoftmaxOutput", 
      "name": "age_prob_62", 
      "attrs": {
        "grad_scale": "1", 
        "ignore_label": "-1", 
        "normalization": "valid", 
        "use_ignore": "True"
      }, 
      "inputs": [[934, 0, 0], [936, 0, 0]]
    }, 
    {
      "op": "slice_axis", 
      "name": "slice_axis129", 
      "attrs": {
        "axis": "1", 
        "begin": "128", 
        "end": "130"
      }, 
      "inputs": [[616, 0, 0]]
    }, 
    {
      "op": "Reshape", 
      "name": "age_fc_reshape_63", 
      "attrs": {"shape": "(-1, 2)"}, 
      "inputs": [[938, 0, 0]]
    }, 
    {
      "op": "slice_axis", 
      "name": "slice_axis128", 
      "attrs": {
        "axis": "1", 
        "begin": "64", 
        "end": "65"
      }, 
      "inputs": [[619, 0, 0]]
    }, 
    {
      "op": "Reshape", 
      "name": "reshape64", 
      "attrs": {"shape": "(384,)"}, 
      "inputs": [[940, 0, 0]]
    }, 
    {
      "op": "SoftmaxOutput", 
      "name": "age_prob_63", 
      "attrs": {
        "grad_scale": "1", 
        "ignore_label": "-1", 
        "normalization": "valid", 
        "use_ignore": "True"
      }, 
      "inputs": [[939, 0, 0], [941, 0, 0]]
    }, 
    {
      "op": "slice_axis", 
      "name": "slice_axis131", 
      "attrs": {
        "axis": "1", 
        "begin": "130", 
        "end": "132"
      }, 
      "inputs": [[616, 0, 0]]
    }, 
    {
      "op": "Reshape", 
      "name": "age_fc_reshape_64", 
      "attrs": {"shape": "(-1, 2)"}, 
      "inputs": [[943, 0, 0]]
    }, 
    {
      "op": "slice_axis", 
      "name": "slice_axis130", 
      "attrs": {
        "axis": "1", 
        "begin": "65", 
        "end": "66"
      }, 
      "inputs": [[619, 0, 0]]
    }, 
    {
      "op": "Reshape", 
      "name": "reshape65", 
      "attrs": {"shape": "(384,)"}, 
      "inputs": [[945, 0, 0]]
    }, 
    {
      "op": "SoftmaxOutput", 
      "name": "age_prob_64", 
      "attrs": {
        "grad_scale": "1", 
        "ignore_label": "-1", 
        "normalization": "valid", 
        "use_ignore": "True"
      }, 
      "inputs": [[944, 0, 0], [946, 0, 0]]
    }, 
    {
      "op": "slice_axis", 
      "name": "slice_axis133", 
      "attrs": {
        "axis": "1", 
        "begin": "132", 
        "end": "134"
      }, 
      "inputs": [[616, 0, 0]]
    }, 
    {
      "op": "Reshape", 
      "name": "age_fc_reshape_65", 
      "attrs": {"shape": "(-1, 2)"}, 
      "inputs": [[948, 0, 0]]
    }, 
    {
      "op": "slice_axis", 
      "name": "slice_axis132", 
      "attrs": {
        "axis": "1", 
        "begin": "66", 
        "end": "67"
      }, 
      "inputs": [[619, 0, 0]]
    }, 
    {
      "op": "Reshape", 
      "name": "reshape66", 
      "attrs": {"shape": "(384,)"}, 
      "inputs": [[950, 0, 0]]
    }, 
    {
      "op": "SoftmaxOutput", 
      "name": "age_prob_65", 
      "attrs": {
        "grad_scale": "1", 
        "ignore_label": "-1", 
        "normalization": "valid", 
        "use_ignore": "True"
      }, 
      "inputs": [[949, 0, 0], [951, 0, 0]]
    }, 
    {
      "op": "slice_axis", 
      "name": "slice_axis135", 
      "attrs": {
        "axis": "1", 
        "begin": "134", 
        "end": "136"
      }, 
      "inputs": [[616, 0, 0]]
    }, 
    {
      "op": "Reshape", 
      "name": "age_fc_reshape_66", 
      "attrs": {"shape": "(-1, 2)"}, 
      "inputs": [[953, 0, 0]]
    }, 
    {
      "op": "slice_axis", 
      "name": "slice_axis134", 
      "attrs": {
        "axis": "1", 
        "begin": "67", 
        "end": "68"
      }, 
      "inputs": [[619, 0, 0]]
    }, 
    {
      "op": "Reshape", 
      "name": "reshape67", 
      "attrs": {"shape": "(384,)"}, 
      "inputs": [[955, 0, 0]]
    }, 
    {
      "op": "SoftmaxOutput", 
      "name": "age_prob_66", 
      "attrs": {
        "grad_scale": "1", 
        "ignore_label": "-1", 
        "normalization": "valid", 
        "use_ignore": "True"
      }, 
      "inputs": [[954, 0, 0], [956, 0, 0]]
    }, 
    {
      "op": "slice_axis", 
      "name": "slice_axis137", 
      "attrs": {
        "axis": "1", 
        "begin": "136", 
        "end": "138"
      }, 
      "inputs": [[616, 0, 0]]
    }, 
    {
      "op": "Reshape", 
      "name": "age_fc_reshape_67", 
      "attrs": {"shape": "(-1, 2)"}, 
      "inputs": [[958, 0, 0]]
    }, 
    {
      "op": "slice_axis", 
      "name": "slice_axis136", 
      "attrs": {
        "axis": "1", 
        "begin": "68", 
        "end": "69"
      }, 
      "inputs": [[619, 0, 0]]
    }, 
    {
      "op": "Reshape", 
      "name": "reshape68", 
      "attrs": {"shape": "(384,)"}, 
      "inputs": [[960, 0, 0]]
    }, 
    {
      "op": "SoftmaxOutput", 
      "name": "age_prob_67", 
      "attrs": {
        "grad_scale": "1", 
        "ignore_label": "-1", 
        "normalization": "valid", 
        "use_ignore": "True"
      }, 
      "inputs": [[959, 0, 0], [961, 0, 0]]
    }, 
    {
      "op": "slice_axis", 
      "name": "slice_axis139", 
      "attrs": {
        "axis": "1", 
        "begin": "138", 
        "end": "140"
      }, 
      "inputs": [[616, 0, 0]]
    }, 
    {
      "op": "Reshape", 
      "name": "age_fc_reshape_68", 
      "attrs": {"shape": "(-1, 2)"}, 
      "inputs": [[963, 0, 0]]
    }, 
    {
      "op": "slice_axis", 
      "name": "slice_axis138", 
      "attrs": {
        "axis": "1", 
        "begin": "69", 
        "end": "70"
      }, 
      "inputs": [[619, 0, 0]]
    }, 
    {
      "op": "Reshape", 
      "name": "reshape69", 
      "attrs": {"shape": "(384,)"}, 
      "inputs": [[965, 0, 0]]
    }, 
    {
      "op": "SoftmaxOutput", 
      "name": "age_prob_68", 
      "attrs": {
        "grad_scale": "1", 
        "ignore_label": "-1", 
        "normalization": "valid", 
        "use_ignore": "True"
      }, 
      "inputs": [[964, 0, 0], [966, 0, 0]]
    }, 
    {
      "op": "slice_axis", 
      "name": "slice_axis141", 
      "attrs": {
        "axis": "1", 
        "begin": "140", 
        "end": "142"
      }, 
      "inputs": [[616, 0, 0]]
    }, 
    {
      "op": "Reshape", 
      "name": "age_fc_reshape_69", 
      "attrs": {"shape": "(-1, 2)"}, 
      "inputs": [[968, 0, 0]]
    }, 
    {
      "op": "slice_axis", 
      "name": "slice_axis140", 
      "attrs": {
        "axis": "1", 
        "begin": "70", 
        "end": "71"
      }, 
      "inputs": [[619, 0, 0]]
    }, 
    {
      "op": "Reshape", 
      "name": "reshape70", 
      "attrs": {"shape": "(384,)"}, 
      "inputs": [[970, 0, 0]]
    }, 
    {
      "op": "SoftmaxOutput", 
      "name": "age_prob_69", 
      "attrs": {
        "grad_scale": "1", 
        "ignore_label": "-1", 
        "normalization": "valid", 
        "use_ignore": "True"
      }, 
      "inputs": [[969, 0, 0], [971, 0, 0]]
    }, 
    {
      "op": "slice_axis", 
      "name": "slice_axis143", 
      "attrs": {
        "axis": "1", 
        "begin": "142", 
        "end": "144"
      }, 
      "inputs": [[616, 0, 0]]
    }, 
    {
      "op": "Reshape", 
      "name": "age_fc_reshape_70", 
      "attrs": {"shape": "(-1, 2)"}, 
      "inputs": [[973, 0, 0]]
    }, 
    {
      "op": "slice_axis", 
      "name": "slice_axis142", 
      "attrs": {
        "axis": "1", 
        "begin": "71", 
        "end": "72"
      }, 
      "inputs": [[619, 0, 0]]
    }, 
    {
      "op": "Reshape", 
      "name": "reshape71", 
      "attrs": {"shape": "(384,)"}, 
      "inputs": [[975, 0, 0]]
    }, 
    {
      "op": "SoftmaxOutput", 
      "name": "age_prob_70", 
      "attrs": {
        "grad_scale": "1", 
        "ignore_label": "-1", 
        "normalization": "valid", 
        "use_ignore": "True"
      }, 
      "inputs": [[974, 0, 0], [976, 0, 0]]
    }, 
    {
      "op": "BlockGrad", 
      "name": "blockgrad0", 
      "inputs": [[616, 0, 0]]
    }
  ], 
  "arg_nodes": [
    0, 
    1, 
    3, 
    4, 
    5, 
    6, 
    8, 
    10, 
    12, 
    13, 
    14, 
    15, 
    17, 
    19, 
    21, 
    22, 
    23, 
    24, 
    26, 
    28, 
    30, 
    31, 
    32, 
    33, 
    36, 
    38, 
    39, 
    40, 
    41, 
    43, 
    45, 
    47, 
    48, 
    49, 
    50, 
    52, 
    54, 
    56, 
    57, 
    58, 
    59, 
    62, 
    64, 
    65, 
    66, 
    67, 
    69, 
    71, 
    73, 
    74, 
    75, 
    76, 
    78, 
    80, 
    82, 
    83, 
    84, 
    85, 
    87, 
    89, 
    90, 
    91, 
    92, 
    94, 
    96, 
    98, 
    99, 
    100, 
    101, 
    103, 
    105, 
    107, 
    108, 
    109, 
    110, 
    113, 
    115, 
    116, 
    117, 
    118, 
    120, 
    122, 
    124, 
    125, 
    126, 
    127, 
    129, 
    131, 
    133, 
    134, 
    135, 
    136, 
    139, 
    141, 
    142, 
    143, 
    144, 
    146, 
    148, 
    150, 
    151, 
    152, 
    153, 
    155, 
    157, 
    159, 
    160, 
    161, 
    162, 
    165, 
    167, 
    168, 
    169, 
    170, 
    172, 
    174, 
    176, 
    177, 
    178, 
    179, 
    181, 
    183, 
    185, 
    186, 
    187, 
    188, 
    191, 
    193, 
    194, 
    195, 
    196, 
    198, 
    200, 
    202, 
    203, 
    204, 
    205, 
    207, 
    209, 
    211, 
    212, 
    213, 
    214, 
    217, 
    219, 
    220, 
    221, 
    222, 
    224, 
    226, 
    228, 
    229, 
    230, 
    231, 
    233, 
    235, 
    237, 
    238, 
    239, 
    240, 
    243, 
    245, 
    246, 
    247, 
    248, 
    250, 
    252, 
    254, 
    255, 
    256, 
    257, 
    259, 
    261, 
    263, 
    264, 
    265, 
    266, 
    268, 
    270, 
    271, 
    272, 
    273, 
    275, 
    277, 
    279, 
    280, 
    281, 
    282, 
    284, 
    286, 
    288, 
    289, 
    290, 
    291, 
    294, 
    296, 
    297, 
    298, 
    299, 
    301, 
    303, 
    305, 
    306, 
    307, 
    308, 
    310, 
    312, 
    314, 
    315, 
    316, 
    317, 
    320, 
    322, 
    323, 
    324, 
    325, 
    327, 
    329, 
    331, 
    332, 
    333, 
    334, 
    336, 
    338, 
    340, 
    341, 
    342, 
    343, 
    346, 
    348, 
    349, 
    350, 
    351, 
    353, 
    355, 
    357, 
    358, 
    359, 
    360, 
    362, 
    364, 
    366, 
    367, 
    368, 
    369, 
    372, 
    374, 
    375, 
    376, 
    377, 
    379, 
    381, 
    383, 
    384, 
    385, 
    386, 
    388, 
    390, 
    392, 
    393, 
    394, 
    395, 
    398, 
    400, 
    401, 
    402, 
    403, 
    405, 
    407, 
    409, 
    410, 
    411, 
    412, 
    414, 
    416, 
    418, 
    419, 
    420, 
    421, 
    424, 
    426, 
    427, 
    428, 
    429, 
    431, 
    433, 
    435, 
    436, 
    437, 
    438, 
    440, 
    442, 
    444, 
    445, 
    446, 
    447, 
    450, 
    452, 
    453, 
    454, 
    455, 
    457, 
    459, 
    461, 
    462, 
    463, 
    464, 
    466, 
    468, 
    470, 
    471, 
    472, 
    473, 
    476, 
    478, 
    479, 
    480, 
    481, 
    483, 
    485, 
    487, 
    488, 
    489, 
    490, 
    492, 
    494, 
    496, 
    497, 
    498, 
    499, 
    502, 
    504, 
    505, 
    506, 
    507, 
    509, 
    511, 
    513, 
    514, 
    515, 
    516, 
    518, 
    520, 
    522, 
    523, 
    524, 
    525, 
    528, 
    530, 
    531, 
    532, 
    533, 
    535, 
    537, 
    539, 
    540, 
    541, 
    542, 
    544, 
    546, 
    548, 
    549, 
    550, 
    551, 
    553, 
    555, 
    556, 
    557, 
    558, 
    560, 
    562, 
    564, 
    565, 
    566, 
    567, 
    569, 
    571, 
    573, 
    574, 
    575, 
    576, 
    579, 
    581, 
    582, 
    583, 
    584, 
    586, 
    588, 
    590, 
    591, 
    592, 
    593, 
    595, 
    597, 
    599, 
    600, 
    601, 
    602, 
    605, 
    607, 
    608, 
    609, 
    610, 
    612, 
    614, 
    615, 
    619
  ], 
  "node_row_ptr": [
    0, 
    1, 
    2, 
    3, 
    4, 
    5, 
    6, 
    7, 
    10, 
    11, 
    12, 
    13, 
    14, 
    15, 
    16, 
    17, 
    18, 
    21, 
    22, 
    23, 
    24, 
    25, 
    26, 
    27, 
    28, 
    29, 
    32, 
    33, 
    34, 
    35, 
    36, 
    37, 
    38, 
    39, 
    40, 
    43, 
    44, 
    45, 
    46, 
    47, 
    48, 
    49, 
    50, 
    53, 
    54, 
    55, 
    56, 
    57, 
    58, 
    59, 
    60, 
    61, 
    64, 
    65, 
    66, 
    67, 
    68, 
    69, 
    70, 
    71, 
    72, 
    75, 
    76, 
    77, 
    78, 
    79, 
    80, 
    81, 
    82, 
    85, 
    86, 
    87, 
    88, 
    89, 
    90, 
    91, 
    92, 
    93, 
    96, 
    97, 
    98, 
    99, 
    100, 
    101, 
    102, 
    103, 
    104, 
    107, 
    108, 
    109, 
    110, 
    111, 
    112, 
    113, 
    116, 
    117, 
    118, 
    119, 
    120, 
    121, 
    122, 
    123, 
    124, 
    127, 
    128, 
    129, 
    130, 
    131, 
    132, 
    133, 
    134, 
    135, 
    138, 
    139, 
    140, 
    141, 
    142, 
    143, 
    144, 
    145, 
    148, 
    149, 
    150, 
    151, 
    152, 
    153, 
    154, 
    155, 
    156, 
    159, 
    160, 
    161, 
    162, 
    163, 
    164, 
    165, 
    166, 
    167, 
    170, 
    171, 
    172, 
    173, 
    174, 
    175, 
    176, 
    177, 
    180, 
    181, 
    182, 
    183, 
    184, 
    185, 
    186, 
    187, 
    188, 
    191, 
    192, 
    193, 
    194, 
    195, 
    196, 
    197, 
    198, 
    199, 
    202, 
    203, 
    204, 
    205, 
    206, 
    207, 
    208, 
    209, 
    212, 
    213, 
    214, 
    215, 
    216, 
    217, 
    218, 
    219, 
    220, 
    223, 
    224, 
    225, 
    226, 
    227, 
    228, 
    229, 
    230, 
    231, 
    234, 
    235, 
    236, 
    237, 
    238, 
    239, 
    240, 
    241, 
    244, 
    245, 
    246, 
    247, 
    248, 
    249, 
    250, 
    251, 
    252, 
    255, 
    256, 
    257, 
    258, 
    259, 
    260, 
    261, 
    262, 
    263, 
    266, 
    267, 
    268, 
    269, 
    270, 
    271, 
    272, 
    273, 
    276, 
    277, 
    278, 
    279, 
    280, 
    281, 
    282, 
    283, 
    284, 
    287, 
    288, 
    289, 
    290, 
    291, 
    292, 
    293, 
    294, 
    295, 
    298, 
    299, 
    300, 
    301, 
    302, 
    303, 
    304, 
    305, 
    308, 
    309, 
    310, 
    311, 
    312, 
    313, 
    314, 
    315, 
    316, 
    319, 
    320, 
    321, 
    322, 
    323, 
    324, 
    325, 
    326, 
    327, 
    330, 
    331, 
    332, 
    333, 
    334, 
    335, 
    336, 
    339, 
    340, 
    341, 
    342, 
    343, 
    344, 
    345, 
    346, 
    347, 
    350, 
    351, 
    352, 
    353, 
    354, 
    355, 
    356, 
    357, 
    358, 
    361, 
    362, 
    363, 
    364, 
    365, 
    366, 
    367, 
    368, 
    371, 
    372, 
    373, 
    374, 
    375, 
    376, 
    377, 
    378, 
    379, 
    382, 
    383, 
    384, 
    385, 
    386, 
    387, 
    388, 
    389, 
    390, 
    393, 
    394, 
    395, 
    396, 
    397, 
    398, 
    399, 
    400, 
    403, 
    404, 
    405, 
    406, 
    407, 
    408, 
    409, 
    410, 
    411, 
    414, 
    415, 
    416, 
    417, 
    418, 
    419, 
    420, 
    421, 
    422, 
    425, 
    426, 
    427, 
    428, 
    429, 
    430, 
    431, 
    432, 
    435, 
    436, 
    437, 
    438, 
    439, 
    440, 
    441, 
    442, 
    443, 
    446, 
    447, 
    448, 
    449, 
    450, 
    451, 
    452, 
    453, 
    454, 
    457, 
    458, 
    459, 
    460, 
    461, 
    462, 
    463, 
    464, 
    467, 
    468, 
    469, 
    470, 
    471, 
    472, 
    473, 
    474, 
    475, 
    478, 
    479, 
    480, 
    481, 
    482, 
    483, 
    484, 
    485, 
    486, 
    489, 
    490, 
    491, 
    492, 
    493, 
    494, 
    495, 
    496, 
    499, 
    500, 
    501, 
    502, 
    503, 
    504, 
    505, 
    506, 
    507, 
    510, 
    511, 
    512, 
    513, 
    514, 
    515, 
    516, 
    517, 
    518, 
    521, 
    522, 
    523, 
    524, 
    525, 
    526, 
    527, 
    528, 
    531, 
    532, 
    533, 
    534, 
    535, 
    536, 
    537, 
    538, 
    539, 
    542, 
    543, 
    544, 
    545, 
    546, 
    547, 
    548, 
    549, 
    550, 
    553, 
    554, 
    555, 
    556, 
    557, 
    558, 
    559, 
    560, 
    563, 
    564, 
    565, 
    566, 
    567, 
    568, 
    569, 
    570, 
    571, 
    574, 
    575, 
    576, 
    577, 
    578, 
    579, 
    580, 
    581, 
    582, 
    585, 
    586, 
    587, 
    588, 
    589, 
    590, 
    591, 
    592, 
    595, 
    596, 
    597, 
    598, 
    599, 
    600, 
    601, 
    602, 
    603, 
    606, 
    607, 
    608, 
    609, 
    610, 
    611, 
    612, 
    613, 
    614, 
    617, 
    618, 
    619, 
    620, 
    621, 
    622, 
    623, 
    624, 
    627, 
    628, 
    629, 
    630, 
    631, 
    632, 
    633, 
    634, 
    635, 
    638, 
    639, 
    640, 
    641, 
    642, 
    643, 
    644, 
    645, 
    646, 
    649, 
    650, 
    651, 
    652, 
    653, 
    654, 
    655, 
    656, 
    659, 
    660, 
    661, 
    662, 
    663, 
    664, 
    665, 
    666, 
    667, 
    670, 
    671, 
    672, 
    673, 
    674, 
    675, 
    676, 
    677, 
    678, 
    681, 
    682, 
    683, 
    684, 
    685, 
    686, 
    687, 
    690, 
    691, 
    692, 
    693, 
    694, 
    695, 
    696, 
    697, 
    698, 
    701, 
    702, 
    703, 
    704, 
    705, 
    706, 
    707, 
    708, 
    709, 
    712, 
    713, 
    714, 
    715, 
    716, 
    717, 
    718, 
    719, 
    722, 
    723, 
    724, 
    725, 
    726, 
    727, 
    728, 
    729, 
    730, 
    733, 
    734, 
    735, 
    736, 
    737, 
    738, 
    739, 
    740, 
    741, 
    744, 
    745, 
    746, 
    747, 
    748, 
    749, 
    750, 
    751, 
    754, 
    755, 
    756, 
    757, 
    758, 
    759, 
    760, 
    761, 
    762, 
    763, 
    764, 
    765, 
    766, 
    767, 
    768, 
    769, 
    770, 
    771, 
    772, 
    773, 
    774, 
    775, 
    776, 
    777, 
    778, 
    779, 
    780, 
    781, 
    782, 
    783, 
    784, 
    785, 
    786, 
    787, 
    788, 
    789, 
    790, 
    791, 
    792, 
    793, 
    794, 
    795, 
    796, 
    797, 
    798, 
    799, 
    800, 
    801, 
    802, 
    803, 
    804, 
    805, 
    806, 
    807, 
    808, 
    809, 
    810, 
    811, 
    812, 
    813, 
    814, 
    815, 
    816, 
    817, 
    818, 
    819, 
    820, 
    821, 
    822, 
    823, 
    824, 
    825, 
    826, 
    827, 
    828, 
    829, 
    830, 
    831, 
    832, 
    833, 
    834, 
    835, 
    836, 
    837, 
    838, 
    839, 
    840, 
    841, 
    842, 
    843, 
    844, 
    845, 
    846, 
    847, 
    848, 
    849, 
    850, 
    851, 
    852, 
    853, 
    854, 
    855, 
    856, 
    857, 
    858, 
    859, 
    860, 
    861, 
    862, 
    863, 
    864, 
    865, 
    866, 
    867, 
    868, 
    869, 
    870, 
    871, 
    872, 
    873, 
    874, 
    875, 
    876, 
    877, 
    878, 
    879, 
    880, 
    881, 
    882, 
    883, 
    884, 
    885, 
    886, 
    887, 
    888, 
    889, 
    890, 
    891, 
    892, 
    893, 
    894, 
    895, 
    896, 
    897, 
    898, 
    899, 
    900, 
    901, 
    902, 
    903, 
    904, 
    905, 
    906, 
    907, 
    908, 
    909, 
    910, 
    911, 
    912, 
    913, 
    914, 
    915, 
    916, 
    917, 
    918, 
    919, 
    920, 
    921, 
    922, 
    923, 
    924, 
    925, 
    926, 
    927, 
    928, 
    929, 
    930, 
    931, 
    932, 
    933, 
    934, 
    935, 
    936, 
    937, 
    938, 
    939, 
    940, 
    941, 
    942, 
    943, 
    944, 
    945, 
    946, 
    947, 
    948, 
    949, 
    950, 
    951, 
    952, 
    953, 
    954, 
    955, 
    956, 
    957, 
    958, 
    959, 
    960, 
    961, 
    962, 
    963, 
    964, 
    965, 
    966, 
    967, 
    968, 
    969, 
    970, 
    971, 
    972, 
    973, 
    974, 
    975, 
    976, 
    977, 
    978, 
    979, 
    980, 
    981, 
    982, 
    983, 
    984, 
    985, 
    986, 
    987, 
    988, 
    989, 
    990, 
    991, 
    992, 
    993, 
    994, 
    995, 
    996, 
    997, 
    998, 
    999, 
    1000, 
    1001, 
    1002, 
    1003, 
    1004, 
    1005, 
    1006, 
    1007, 
    1008, 
    1009, 
    1010, 
    1011, 
    1012, 
    1013, 
    1014, 
    1015, 
    1016, 
    1017, 
    1018, 
    1019, 
    1020, 
    1021, 
    1022, 
    1023, 
    1024, 
    1025, 
    1026, 
    1027, 
    1028, 
    1029, 
    1030, 
    1031, 
    1032, 
    1033, 
    1034, 
    1035, 
    1036, 
    1037, 
    1038, 
    1039, 
    1040, 
    1041, 
    1042, 
    1043, 
    1044, 
    1045, 
    1046, 
    1047, 
    1048, 
    1049, 
    1050, 
    1051, 
    1052, 
    1053, 
    1054, 
    1055, 
    1056, 
    1057, 
    1058, 
    1059, 
    1060, 
    1061, 
    1062, 
    1063, 
    1064, 
    1065, 
    1066, 
    1067, 
    1068, 
    1069, 
    1070, 
    1071, 
    1072, 
    1073, 
    1074, 
    1075, 
    1076, 
    1077, 
    1078, 
    1079, 
    1080, 
    1081, 
    1082, 
    1083, 
    1084, 
    1085, 
    1086, 
    1087, 
    1088, 
    1089, 
    1090, 
    1091, 
    1092, 
    1093, 
    1094, 
    1095, 
    1096, 
    1097, 
    1098, 
    1099, 
    1100, 
    1101, 
    1102, 
    1103, 
    1104, 
    1105, 
    1106, 
    1107, 
    1108, 
    1109, 
    1110, 
    1111, 
    1112, 
    1113, 
    1114, 
    1115, 
    1116, 
    1117, 
    1118, 
    1119, 
    1120, 
    1121
  ], 
  "heads": [
    [622, 0, 0], 
    [627, 0, 0], 
    [632, 0, 0], 
    [637, 0, 0], 
    [642, 0, 0], 
    [647, 0, 0], 
    [652, 0, 0], 
    [657, 0, 0], 
    [662, 0, 0], 
    [667, 0, 0], 
    [672, 0, 0], 
    [677, 0, 0], 
    [682, 0, 0], 
    [687, 0, 0], 
    [692, 0, 0], 
    [697, 0, 0], 
    [702, 0, 0], 
    [707, 0, 0], 
    [712, 0, 0], 
    [717, 0, 0], 
    [722, 0, 0], 
    [727, 0, 0], 
    [732, 0, 0], 
    [737, 0, 0], 
    [742, 0, 0], 
    [747, 0, 0], 
    [752, 0, 0], 
    [757, 0, 0], 
    [762, 0, 0], 
    [767, 0, 0], 
    [772, 0, 0], 
    [777, 0, 0], 
    [782, 0, 0], 
    [787, 0, 0], 
    [792, 0, 0], 
    [797, 0, 0], 
    [802, 0, 0], 
    [807, 0, 0], 
    [812, 0, 0], 
    [817, 0, 0], 
    [822, 0, 0], 
    [827, 0, 0], 
    [832, 0, 0], 
    [837, 0, 0], 
    [842, 0, 0], 
    [847, 0, 0], 
    [852, 0, 0], 
    [857, 0, 0], 
    [862, 0, 0], 
    [867, 0, 0], 
    [872, 0, 0], 
    [877, 0, 0], 
    [882, 0, 0], 
    [887, 0, 0], 
    [892, 0, 0], 
    [897, 0, 0], 
    [902, 0, 0], 
    [907, 0, 0], 
    [912, 0, 0], 
    [917, 0, 0], 
    [922, 0, 0], 
    [927, 0, 0], 
    [932, 0, 0], 
    [937, 0, 0], 
    [942, 0, 0], 
    [947, 0, 0], 
    [952, 0, 0], 
    [957, 0, 0], 
    [962, 0, 0], 
    [967, 0, 0], 
    [972, 0, 0], 
    [977, 0, 0], 
    [978, 0, 0]
  ], 
  "attrs": {"mxnet_version": ["int", 10100]}
}